node {
  name: "input_x"
  op: "Placeholder"
  attr {
    key: "dtype"
    value {
      type: DT_INT32
    }
  }
  attr {
    key: "shape"
    value {
      shape {
        dim {
          size: 1
        }
        dim {
          size: -1
        }
      }
    }
  }
}
node {
  name: "input_y"
  op: "Placeholder"
  attr {
    key: "dtype"
    value {
      type: DT_INT32
    }
  }
  attr {
    key: "shape"
    value {
      shape {
        dim {
          size: 4530
        }
        dim {
          size: -1
        }
      }
    }
  }
}
node {
  name: "embedding/Initializer/random_uniform/shape"
  op: "Const"
  attr {
    key: "_class"
    value {
      list {
        s: "loc:@embedding"
      }
    }
  }
  attr {
    key: "dtype"
    value {
      type: DT_INT32
    }
  }
  attr {
    key: "value"
    value {
      tensor {
        dtype: DT_INT32
        tensor_shape {
          dim {
            size: 2
          }
        }
        tensor_content: "-\255\000\000@\001\000\000"
      }
    }
  }
}
node {
  name: "embedding/Initializer/random_uniform/min"
  op: "Const"
  attr {
    key: "_class"
    value {
      list {
        s: "loc:@embedding"
      }
    }
  }
  attr {
    key: "dtype"
    value {
      type: DT_FLOAT
    }
  }
  attr {
    key: "value"
    value {
      tensor {
        dtype: DT_FLOAT
        tensor_shape {
        }
        float_val: -0.011591784656047821
      }
    }
  }
}
node {
  name: "embedding/Initializer/random_uniform/max"
  op: "Const"
  attr {
    key: "_class"
    value {
      list {
        s: "loc:@embedding"
      }
    }
  }
  attr {
    key: "dtype"
    value {
      type: DT_FLOAT
    }
  }
  attr {
    key: "value"
    value {
      tensor {
        dtype: DT_FLOAT
        tensor_shape {
        }
        float_val: 0.011591784656047821
      }
    }
  }
}
node {
  name: "embedding/Initializer/random_uniform/RandomUniform"
  op: "RandomUniform"
  input: "embedding/Initializer/random_uniform/shape"
  attr {
    key: "T"
    value {
      type: DT_INT32
    }
  }
  attr {
    key: "_class"
    value {
      list {
        s: "loc:@embedding"
      }
    }
  }
  attr {
    key: "dtype"
    value {
      type: DT_FLOAT
    }
  }
  attr {
    key: "seed"
    value {
      i: 0
    }
  }
  attr {
    key: "seed2"
    value {
      i: 0
    }
  }
}
node {
  name: "embedding/Initializer/random_uniform/sub"
  op: "Sub"
  input: "embedding/Initializer/random_uniform/max"
  input: "embedding/Initializer/random_uniform/min"
  attr {
    key: "T"
    value {
      type: DT_FLOAT
    }
  }
  attr {
    key: "_class"
    value {
      list {
        s: "loc:@embedding"
      }
    }
  }
}
node {
  name: "embedding/Initializer/random_uniform/mul"
  op: "Mul"
  input: "embedding/Initializer/random_uniform/RandomUniform"
  input: "embedding/Initializer/random_uniform/sub"
  attr {
    key: "T"
    value {
      type: DT_FLOAT
    }
  }
  attr {
    key: "_class"
    value {
      list {
        s: "loc:@embedding"
      }
    }
  }
}
node {
  name: "embedding/Initializer/random_uniform"
  op: "Add"
  input: "embedding/Initializer/random_uniform/mul"
  input: "embedding/Initializer/random_uniform/min"
  attr {
    key: "T"
    value {
      type: DT_FLOAT
    }
  }
  attr {
    key: "_class"
    value {
      list {
        s: "loc:@embedding"
      }
    }
  }
}
node {
  name: "embedding"
  op: "VariableV2"
  attr {
    key: "_class"
    value {
      list {
        s: "loc:@embedding"
      }
    }
  }
  attr {
    key: "container"
    value {
      s: ""
    }
  }
  attr {
    key: "dtype"
    value {
      type: DT_FLOAT
    }
  }
  attr {
    key: "shape"
    value {
      shape {
        dim {
          size: 44333
        }
        dim {
          size: 320
        }
      }
    }
  }
  attr {
    key: "shared_name"
    value {
      s: ""
    }
  }
}
node {
  name: "embedding/Assign"
  op: "Assign"
  input: "embedding"
  input: "embedding/Initializer/random_uniform"
  attr {
    key: "T"
    value {
      type: DT_FLOAT
    }
  }
  attr {
    key: "_class"
    value {
      list {
        s: "loc:@embedding"
      }
    }
  }
  attr {
    key: "use_locking"
    value {
      b: true
    }
  }
  attr {
    key: "validate_shape"
    value {
      b: true
    }
  }
}
node {
  name: "embedding/read"
  op: "Identity"
  input: "embedding"
  attr {
    key: "T"
    value {
      type: DT_FLOAT
    }
  }
  attr {
    key: "_class"
    value {
      list {
        s: "loc:@embedding"
      }
    }
  }
}
node {
  name: "embedding_lookup/axis"
  op: "Const"
  attr {
    key: "_class"
    value {
      list {
        s: "loc:@embedding"
      }
    }
  }
  attr {
    key: "dtype"
    value {
      type: DT_INT32
    }
  }
  attr {
    key: "value"
    value {
      tensor {
        dtype: DT_INT32
        tensor_shape {
        }
        int_val: 0
      }
    }
  }
}
node {
  name: "embedding_lookup"
  op: "GatherV2"
  input: "embedding/read"
  input: "input_x"
  input: "embedding_lookup/axis"
  attr {
    key: "Taxis"
    value {
      type: DT_INT32
    }
  }
  attr {
    key: "Tindices"
    value {
      type: DT_INT32
    }
  }
  attr {
    key: "Tparams"
    value {
      type: DT_FLOAT
    }
  }
  attr {
    key: "_class"
    value {
      list {
        s: "loc:@embedding"
      }
    }
  }
}
node {
  name: "embedding_lookup/Identity"
  op: "Identity"
  input: "embedding_lookup"
  attr {
    key: "T"
    value {
      type: DT_FLOAT
    }
  }
}
node {
  name: "embedding_lookup_1/axis"
  op: "Const"
  attr {
    key: "_class"
    value {
      list {
        s: "loc:@embedding"
      }
    }
  }
  attr {
    key: "dtype"
    value {
      type: DT_INT32
    }
  }
  attr {
    key: "value"
    value {
      tensor {
        dtype: DT_INT32
        tensor_shape {
        }
        int_val: 0
      }
    }
  }
}
node {
  name: "embedding_lookup_1"
  op: "GatherV2"
  input: "embedding/read"
  input: "input_y"
  input: "embedding_lookup_1/axis"
  attr {
    key: "Taxis"
    value {
      type: DT_INT32
    }
  }
  attr {
    key: "Tindices"
    value {
      type: DT_INT32
    }
  }
  attr {
    key: "Tparams"
    value {
      type: DT_FLOAT
    }
  }
  attr {
    key: "_class"
    value {
      list {
        s: "loc:@embedding"
      }
    }
  }
}
node {
  name: "embedding_lookup_1/Identity"
  op: "Identity"
  input: "embedding_lookup_1"
  attr {
    key: "T"
    value {
      type: DT_FLOAT
    }
  }
}
node {
  name: "Sum/reduction_indices"
  op: "Const"
  attr {
    key: "dtype"
    value {
      type: DT_INT32
    }
  }
  attr {
    key: "value"
    value {
      tensor {
        dtype: DT_INT32
        tensor_shape {
        }
        int_val: 1
      }
    }
  }
}
node {
  name: "Sum"
  op: "Sum"
  input: "embedding_lookup/Identity"
  input: "Sum/reduction_indices"
  attr {
    key: "T"
    value {
      type: DT_FLOAT
    }
  }
  attr {
    key: "Tidx"
    value {
      type: DT_INT32
    }
  }
  attr {
    key: "keep_dims"
    value {
      b: false
    }
  }
}
node {
  name: "Sum_1/reduction_indices"
  op: "Const"
  attr {
    key: "dtype"
    value {
      type: DT_INT32
    }
  }
  attr {
    key: "value"
    value {
      tensor {
        dtype: DT_INT32
        tensor_shape {
        }
        int_val: 1
      }
    }
  }
}
node {
  name: "Sum_1"
  op: "Sum"
  input: "embedding_lookup_1/Identity"
  input: "Sum_1/reduction_indices"
  attr {
    key: "T"
    value {
      type: DT_FLOAT
    }
  }
  attr {
    key: "Tidx"
    value {
      type: DT_INT32
    }
  }
  attr {
    key: "keep_dims"
    value {
      b: false
    }
  }
}
node {
  name: "x_channel/dense/kernel/Initializer/random_uniform/shape"
  op: "Const"
  attr {
    key: "_class"
    value {
      list {
        s: "loc:@x_channel/dense/kernel"
      }
    }
  }
  attr {
    key: "dtype"
    value {
      type: DT_INT32
    }
  }
  attr {
    key: "value"
    value {
      tensor {
        dtype: DT_INT32
        tensor_shape {
          dim {
            size: 2
          }
        }
        tensor_content: "@\001\000\000,\001\000\000"
      }
    }
  }
}
node {
  name: "x_channel/dense/kernel/Initializer/random_uniform/min"
  op: "Const"
  attr {
    key: "_class"
    value {
      list {
        s: "loc:@x_channel/dense/kernel"
      }
    }
  }
  attr {
    key: "dtype"
    value {
      type: DT_FLOAT
    }
  }
  attr {
    key: "value"
    value {
      tensor {
        dtype: DT_FLOAT
        tensor_shape {
        }
        float_val: -0.09837387502193451
      }
    }
  }
}
node {
  name: "x_channel/dense/kernel/Initializer/random_uniform/max"
  op: "Const"
  attr {
    key: "_class"
    value {
      list {
        s: "loc:@x_channel/dense/kernel"
      }
    }
  }
  attr {
    key: "dtype"
    value {
      type: DT_FLOAT
    }
  }
  attr {
    key: "value"
    value {
      tensor {
        dtype: DT_FLOAT
        tensor_shape {
        }
        float_val: 0.09837387502193451
      }
    }
  }
}
node {
  name: "x_channel/dense/kernel/Initializer/random_uniform/RandomUniform"
  op: "RandomUniform"
  input: "x_channel/dense/kernel/Initializer/random_uniform/shape"
  attr {
    key: "T"
    value {
      type: DT_INT32
    }
  }
  attr {
    key: "_class"
    value {
      list {
        s: "loc:@x_channel/dense/kernel"
      }
    }
  }
  attr {
    key: "dtype"
    value {
      type: DT_FLOAT
    }
  }
  attr {
    key: "seed"
    value {
      i: 0
    }
  }
  attr {
    key: "seed2"
    value {
      i: 0
    }
  }
}
node {
  name: "x_channel/dense/kernel/Initializer/random_uniform/sub"
  op: "Sub"
  input: "x_channel/dense/kernel/Initializer/random_uniform/max"
  input: "x_channel/dense/kernel/Initializer/random_uniform/min"
  attr {
    key: "T"
    value {
      type: DT_FLOAT
    }
  }
  attr {
    key: "_class"
    value {
      list {
        s: "loc:@x_channel/dense/kernel"
      }
    }
  }
}
node {
  name: "x_channel/dense/kernel/Initializer/random_uniform/mul"
  op: "Mul"
  input: "x_channel/dense/kernel/Initializer/random_uniform/RandomUniform"
  input: "x_channel/dense/kernel/Initializer/random_uniform/sub"
  attr {
    key: "T"
    value {
      type: DT_FLOAT
    }
  }
  attr {
    key: "_class"
    value {
      list {
        s: "loc:@x_channel/dense/kernel"
      }
    }
  }
}
node {
  name: "x_channel/dense/kernel/Initializer/random_uniform"
  op: "Add"
  input: "x_channel/dense/kernel/Initializer/random_uniform/mul"
  input: "x_channel/dense/kernel/Initializer/random_uniform/min"
  attr {
    key: "T"
    value {
      type: DT_FLOAT
    }
  }
  attr {
    key: "_class"
    value {
      list {
        s: "loc:@x_channel/dense/kernel"
      }
    }
  }
}
node {
  name: "x_channel/dense/kernel"
  op: "VariableV2"
  attr {
    key: "_class"
    value {
      list {
        s: "loc:@x_channel/dense/kernel"
      }
    }
  }
  attr {
    key: "container"
    value {
      s: ""
    }
  }
  attr {
    key: "dtype"
    value {
      type: DT_FLOAT
    }
  }
  attr {
    key: "shape"
    value {
      shape {
        dim {
          size: 320
        }
        dim {
          size: 300
        }
      }
    }
  }
  attr {
    key: "shared_name"
    value {
      s: ""
    }
  }
}
node {
  name: "x_channel/dense/kernel/Assign"
  op: "Assign"
  input: "x_channel/dense/kernel"
  input: "x_channel/dense/kernel/Initializer/random_uniform"
  attr {
    key: "T"
    value {
      type: DT_FLOAT
    }
  }
  attr {
    key: "_class"
    value {
      list {
        s: "loc:@x_channel/dense/kernel"
      }
    }
  }
  attr {
    key: "use_locking"
    value {
      b: true
    }
  }
  attr {
    key: "validate_shape"
    value {
      b: true
    }
  }
}
node {
  name: "x_channel/dense/kernel/read"
  op: "Identity"
  input: "x_channel/dense/kernel"
  attr {
    key: "T"
    value {
      type: DT_FLOAT
    }
  }
  attr {
    key: "_class"
    value {
      list {
        s: "loc:@x_channel/dense/kernel"
      }
    }
  }
}
node {
  name: "x_channel/dense/bias/Initializer/zeros"
  op: "Const"
  attr {
    key: "_class"
    value {
      list {
        s: "loc:@x_channel/dense/bias"
      }
    }
  }
  attr {
    key: "dtype"
    value {
      type: DT_FLOAT
    }
  }
  attr {
    key: "value"
    value {
      tensor {
        dtype: DT_FLOAT
        tensor_shape {
          dim {
            size: 300
          }
        }
        float_val: 0.0
      }
    }
  }
}
node {
  name: "x_channel/dense/bias"
  op: "VariableV2"
  attr {
    key: "_class"
    value {
      list {
        s: "loc:@x_channel/dense/bias"
      }
    }
  }
  attr {
    key: "container"
    value {
      s: ""
    }
  }
  attr {
    key: "dtype"
    value {
      type: DT_FLOAT
    }
  }
  attr {
    key: "shape"
    value {
      shape {
        dim {
          size: 300
        }
      }
    }
  }
  attr {
    key: "shared_name"
    value {
      s: ""
    }
  }
}
node {
  name: "x_channel/dense/bias/Assign"
  op: "Assign"
  input: "x_channel/dense/bias"
  input: "x_channel/dense/bias/Initializer/zeros"
  attr {
    key: "T"
    value {
      type: DT_FLOAT
    }
  }
  attr {
    key: "_class"
    value {
      list {
        s: "loc:@x_channel/dense/bias"
      }
    }
  }
  attr {
    key: "use_locking"
    value {
      b: true
    }
  }
  attr {
    key: "validate_shape"
    value {
      b: true
    }
  }
}
node {
  name: "x_channel/dense/bias/read"
  op: "Identity"
  input: "x_channel/dense/bias"
  attr {
    key: "T"
    value {
      type: DT_FLOAT
    }
  }
  attr {
    key: "_class"
    value {
      list {
        s: "loc:@x_channel/dense/bias"
      }
    }
  }
}
node {
  name: "x_channel/dense/MatMul"
  op: "MatMul"
  input: "Sum"
  input: "x_channel/dense/kernel/read"
  attr {
    key: "T"
    value {
      type: DT_FLOAT
    }
  }
  attr {
    key: "transpose_a"
    value {
      b: false
    }
  }
  attr {
    key: "transpose_b"
    value {
      b: false
    }
  }
}
node {
  name: "x_channel/dense/BiasAdd"
  op: "BiasAdd"
  input: "x_channel/dense/MatMul"
  input: "x_channel/dense/bias/read"
  attr {
    key: "T"
    value {
      type: DT_FLOAT
    }
  }
  attr {
    key: "data_format"
    value {
      s: "NHWC"
    }
  }
}
node {
  name: "x_channel/dense/Tanh"
  op: "Tanh"
  input: "x_channel/dense/BiasAdd"
  attr {
    key: "T"
    value {
      type: DT_FLOAT
    }
  }
}
node {
  name: "x_channel/batch_normalization/gamma/Initializer/ones"
  op: "Const"
  attr {
    key: "_class"
    value {
      list {
        s: "loc:@x_channel/batch_normalization/gamma"
      }
    }
  }
  attr {
    key: "dtype"
    value {
      type: DT_FLOAT
    }
  }
  attr {
    key: "value"
    value {
      tensor {
        dtype: DT_FLOAT
        tensor_shape {
          dim {
            size: 300
          }
        }
        float_val: 1.0
      }
    }
  }
}
node {
  name: "x_channel/batch_normalization/gamma"
  op: "VariableV2"
  attr {
    key: "_class"
    value {
      list {
        s: "loc:@x_channel/batch_normalization/gamma"
      }
    }
  }
  attr {
    key: "container"
    value {
      s: ""
    }
  }
  attr {
    key: "dtype"
    value {
      type: DT_FLOAT
    }
  }
  attr {
    key: "shape"
    value {
      shape {
        dim {
          size: 300
        }
      }
    }
  }
  attr {
    key: "shared_name"
    value {
      s: ""
    }
  }
}
node {
  name: "x_channel/batch_normalization/gamma/Assign"
  op: "Assign"
  input: "x_channel/batch_normalization/gamma"
  input: "x_channel/batch_normalization/gamma/Initializer/ones"
  attr {
    key: "T"
    value {
      type: DT_FLOAT
    }
  }
  attr {
    key: "_class"
    value {
      list {
        s: "loc:@x_channel/batch_normalization/gamma"
      }
    }
  }
  attr {
    key: "use_locking"
    value {
      b: true
    }
  }
  attr {
    key: "validate_shape"
    value {
      b: true
    }
  }
}
node {
  name: "x_channel/batch_normalization/gamma/read"
  op: "Identity"
  input: "x_channel/batch_normalization/gamma"
  attr {
    key: "T"
    value {
      type: DT_FLOAT
    }
  }
  attr {
    key: "_class"
    value {
      list {
        s: "loc:@x_channel/batch_normalization/gamma"
      }
    }
  }
}
node {
  name: "x_channel/batch_normalization/beta/Initializer/zeros"
  op: "Const"
  attr {
    key: "_class"
    value {
      list {
        s: "loc:@x_channel/batch_normalization/beta"
      }
    }
  }
  attr {
    key: "dtype"
    value {
      type: DT_FLOAT
    }
  }
  attr {
    key: "value"
    value {
      tensor {
        dtype: DT_FLOAT
        tensor_shape {
          dim {
            size: 300
          }
        }
        float_val: 0.0
      }
    }
  }
}
node {
  name: "x_channel/batch_normalization/beta"
  op: "VariableV2"
  attr {
    key: "_class"
    value {
      list {
        s: "loc:@x_channel/batch_normalization/beta"
      }
    }
  }
  attr {
    key: "container"
    value {
      s: ""
    }
  }
  attr {
    key: "dtype"
    value {
      type: DT_FLOAT
    }
  }
  attr {
    key: "shape"
    value {
      shape {
        dim {
          size: 300
        }
      }
    }
  }
  attr {
    key: "shared_name"
    value {
      s: ""
    }
  }
}
node {
  name: "x_channel/batch_normalization/beta/Assign"
  op: "Assign"
  input: "x_channel/batch_normalization/beta"
  input: "x_channel/batch_normalization/beta/Initializer/zeros"
  attr {
    key: "T"
    value {
      type: DT_FLOAT
    }
  }
  attr {
    key: "_class"
    value {
      list {
        s: "loc:@x_channel/batch_normalization/beta"
      }
    }
  }
  attr {
    key: "use_locking"
    value {
      b: true
    }
  }
  attr {
    key: "validate_shape"
    value {
      b: true
    }
  }
}
node {
  name: "x_channel/batch_normalization/beta/read"
  op: "Identity"
  input: "x_channel/batch_normalization/beta"
  attr {
    key: "T"
    value {
      type: DT_FLOAT
    }
  }
  attr {
    key: "_class"
    value {
      list {
        s: "loc:@x_channel/batch_normalization/beta"
      }
    }
  }
}
node {
  name: "x_channel/batch_normalization/moving_mean/Initializer/zeros"
  op: "Const"
  attr {
    key: "_class"
    value {
      list {
        s: "loc:@x_channel/batch_normalization/moving_mean"
      }
    }
  }
  attr {
    key: "dtype"
    value {
      type: DT_FLOAT
    }
  }
  attr {
    key: "value"
    value {
      tensor {
        dtype: DT_FLOAT
        tensor_shape {
          dim {
            size: 300
          }
        }
        float_val: 0.0
      }
    }
  }
}
node {
  name: "x_channel/batch_normalization/moving_mean"
  op: "VariableV2"
  attr {
    key: "_class"
    value {
      list {
        s: "loc:@x_channel/batch_normalization/moving_mean"
      }
    }
  }
  attr {
    key: "container"
    value {
      s: ""
    }
  }
  attr {
    key: "dtype"
    value {
      type: DT_FLOAT
    }
  }
  attr {
    key: "shape"
    value {
      shape {
        dim {
          size: 300
        }
      }
    }
  }
  attr {
    key: "shared_name"
    value {
      s: ""
    }
  }
}
node {
  name: "x_channel/batch_normalization/moving_mean/Assign"
  op: "Assign"
  input: "x_channel/batch_normalization/moving_mean"
  input: "x_channel/batch_normalization/moving_mean/Initializer/zeros"
  attr {
    key: "T"
    value {
      type: DT_FLOAT
    }
  }
  attr {
    key: "_class"
    value {
      list {
        s: "loc:@x_channel/batch_normalization/moving_mean"
      }
    }
  }
  attr {
    key: "use_locking"
    value {
      b: true
    }
  }
  attr {
    key: "validate_shape"
    value {
      b: true
    }
  }
}
node {
  name: "x_channel/batch_normalization/moving_mean/read"
  op: "Identity"
  input: "x_channel/batch_normalization/moving_mean"
  attr {
    key: "T"
    value {
      type: DT_FLOAT
    }
  }
  attr {
    key: "_class"
    value {
      list {
        s: "loc:@x_channel/batch_normalization/moving_mean"
      }
    }
  }
}
node {
  name: "x_channel/batch_normalization/moving_variance/Initializer/ones"
  op: "Const"
  attr {
    key: "_class"
    value {
      list {
        s: "loc:@x_channel/batch_normalization/moving_variance"
      }
    }
  }
  attr {
    key: "dtype"
    value {
      type: DT_FLOAT
    }
  }
  attr {
    key: "value"
    value {
      tensor {
        dtype: DT_FLOAT
        tensor_shape {
          dim {
            size: 300
          }
        }
        float_val: 1.0
      }
    }
  }
}
node {
  name: "x_channel/batch_normalization/moving_variance"
  op: "VariableV2"
  attr {
    key: "_class"
    value {
      list {
        s: "loc:@x_channel/batch_normalization/moving_variance"
      }
    }
  }
  attr {
    key: "container"
    value {
      s: ""
    }
  }
  attr {
    key: "dtype"
    value {
      type: DT_FLOAT
    }
  }
  attr {
    key: "shape"
    value {
      shape {
        dim {
          size: 300
        }
      }
    }
  }
  attr {
    key: "shared_name"
    value {
      s: ""
    }
  }
}
node {
  name: "x_channel/batch_normalization/moving_variance/Assign"
  op: "Assign"
  input: "x_channel/batch_normalization/moving_variance"
  input: "x_channel/batch_normalization/moving_variance/Initializer/ones"
  attr {
    key: "T"
    value {
      type: DT_FLOAT
    }
  }
  attr {
    key: "_class"
    value {
      list {
        s: "loc:@x_channel/batch_normalization/moving_variance"
      }
    }
  }
  attr {
    key: "use_locking"
    value {
      b: true
    }
  }
  attr {
    key: "validate_shape"
    value {
      b: true
    }
  }
}
node {
  name: "x_channel/batch_normalization/moving_variance/read"
  op: "Identity"
  input: "x_channel/batch_normalization/moving_variance"
  attr {
    key: "T"
    value {
      type: DT_FLOAT
    }
  }
  attr {
    key: "_class"
    value {
      list {
        s: "loc:@x_channel/batch_normalization/moving_variance"
      }
    }
  }
}
node {
  name: "x_channel/batch_normalization/batchnorm/add/y"
  op: "Const"
  attr {
    key: "dtype"
    value {
      type: DT_FLOAT
    }
  }
  attr {
    key: "value"
    value {
      tensor {
        dtype: DT_FLOAT
        tensor_shape {
        }
        float_val: 0.0010000000474974513
      }
    }
  }
}
node {
  name: "x_channel/batch_normalization/batchnorm/add"
  op: "Add"
  input: "x_channel/batch_normalization/moving_variance/read"
  input: "x_channel/batch_normalization/batchnorm/add/y"
  attr {
    key: "T"
    value {
      type: DT_FLOAT
    }
  }
}
node {
  name: "x_channel/batch_normalization/batchnorm/Rsqrt"
  op: "Rsqrt"
  input: "x_channel/batch_normalization/batchnorm/add"
  attr {
    key: "T"
    value {
      type: DT_FLOAT
    }
  }
}
node {
  name: "x_channel/batch_normalization/batchnorm/mul"
  op: "Mul"
  input: "x_channel/batch_normalization/batchnorm/Rsqrt"
  input: "x_channel/batch_normalization/gamma/read"
  attr {
    key: "T"
    value {
      type: DT_FLOAT
    }
  }
}
node {
  name: "x_channel/batch_normalization/batchnorm/mul_1"
  op: "Mul"
  input: "x_channel/dense/Tanh"
  input: "x_channel/batch_normalization/batchnorm/mul"
  attr {
    key: "T"
    value {
      type: DT_FLOAT
    }
  }
}
node {
  name: "x_channel/batch_normalization/batchnorm/mul_2"
  op: "Mul"
  input: "x_channel/batch_normalization/moving_mean/read"
  input: "x_channel/batch_normalization/batchnorm/mul"
  attr {
    key: "T"
    value {
      type: DT_FLOAT
    }
  }
}
node {
  name: "x_channel/batch_normalization/batchnorm/sub"
  op: "Sub"
  input: "x_channel/batch_normalization/beta/read"
  input: "x_channel/batch_normalization/batchnorm/mul_2"
  attr {
    key: "T"
    value {
      type: DT_FLOAT
    }
  }
}
node {
  name: "x_channel/batch_normalization/batchnorm/add_1"
  op: "Add"
  input: "x_channel/batch_normalization/batchnorm/mul_1"
  input: "x_channel/batch_normalization/batchnorm/sub"
  attr {
    key: "T"
    value {
      type: DT_FLOAT
    }
  }
}
node {
  name: "x_channel/dense_1/kernel/Initializer/random_uniform/shape"
  op: "Const"
  attr {
    key: "_class"
    value {
      list {
        s: "loc:@x_channel/dense_1/kernel"
      }
    }
  }
  attr {
    key: "dtype"
    value {
      type: DT_INT32
    }
  }
  attr {
    key: "value"
    value {
      tensor {
        dtype: DT_INT32
        tensor_shape {
          dim {
            size: 2
          }
        }
        tensor_content: ",\001\000\000,\001\000\000"
      }
    }
  }
}
node {
  name: "x_channel/dense_1/kernel/Initializer/random_uniform/min"
  op: "Const"
  attr {
    key: "_class"
    value {
      list {
        s: "loc:@x_channel/dense_1/kernel"
      }
    }
  }
  attr {
    key: "dtype"
    value {
      type: DT_FLOAT
    }
  }
  attr {
    key: "value"
    value {
      tensor {
        dtype: DT_FLOAT
        tensor_shape {
        }
        float_val: -0.10000000149011612
      }
    }
  }
}
node {
  name: "x_channel/dense_1/kernel/Initializer/random_uniform/max"
  op: "Const"
  attr {
    key: "_class"
    value {
      list {
        s: "loc:@x_channel/dense_1/kernel"
      }
    }
  }
  attr {
    key: "dtype"
    value {
      type: DT_FLOAT
    }
  }
  attr {
    key: "value"
    value {
      tensor {
        dtype: DT_FLOAT
        tensor_shape {
        }
        float_val: 0.10000000149011612
      }
    }
  }
}
node {
  name: "x_channel/dense_1/kernel/Initializer/random_uniform/RandomUniform"
  op: "RandomUniform"
  input: "x_channel/dense_1/kernel/Initializer/random_uniform/shape"
  attr {
    key: "T"
    value {
      type: DT_INT32
    }
  }
  attr {
    key: "_class"
    value {
      list {
        s: "loc:@x_channel/dense_1/kernel"
      }
    }
  }
  attr {
    key: "dtype"
    value {
      type: DT_FLOAT
    }
  }
  attr {
    key: "seed"
    value {
      i: 0
    }
  }
  attr {
    key: "seed2"
    value {
      i: 0
    }
  }
}
node {
  name: "x_channel/dense_1/kernel/Initializer/random_uniform/sub"
  op: "Sub"
  input: "x_channel/dense_1/kernel/Initializer/random_uniform/max"
  input: "x_channel/dense_1/kernel/Initializer/random_uniform/min"
  attr {
    key: "T"
    value {
      type: DT_FLOAT
    }
  }
  attr {
    key: "_class"
    value {
      list {
        s: "loc:@x_channel/dense_1/kernel"
      }
    }
  }
}
node {
  name: "x_channel/dense_1/kernel/Initializer/random_uniform/mul"
  op: "Mul"
  input: "x_channel/dense_1/kernel/Initializer/random_uniform/RandomUniform"
  input: "x_channel/dense_1/kernel/Initializer/random_uniform/sub"
  attr {
    key: "T"
    value {
      type: DT_FLOAT
    }
  }
  attr {
    key: "_class"
    value {
      list {
        s: "loc:@x_channel/dense_1/kernel"
      }
    }
  }
}
node {
  name: "x_channel/dense_1/kernel/Initializer/random_uniform"
  op: "Add"
  input: "x_channel/dense_1/kernel/Initializer/random_uniform/mul"
  input: "x_channel/dense_1/kernel/Initializer/random_uniform/min"
  attr {
    key: "T"
    value {
      type: DT_FLOAT
    }
  }
  attr {
    key: "_class"
    value {
      list {
        s: "loc:@x_channel/dense_1/kernel"
      }
    }
  }
}
node {
  name: "x_channel/dense_1/kernel"
  op: "VariableV2"
  attr {
    key: "_class"
    value {
      list {
        s: "loc:@x_channel/dense_1/kernel"
      }
    }
  }
  attr {
    key: "container"
    value {
      s: ""
    }
  }
  attr {
    key: "dtype"
    value {
      type: DT_FLOAT
    }
  }
  attr {
    key: "shape"
    value {
      shape {
        dim {
          size: 300
        }
        dim {
          size: 300
        }
      }
    }
  }
  attr {
    key: "shared_name"
    value {
      s: ""
    }
  }
}
node {
  name: "x_channel/dense_1/kernel/Assign"
  op: "Assign"
  input: "x_channel/dense_1/kernel"
  input: "x_channel/dense_1/kernel/Initializer/random_uniform"
  attr {
    key: "T"
    value {
      type: DT_FLOAT
    }
  }
  attr {
    key: "_class"
    value {
      list {
        s: "loc:@x_channel/dense_1/kernel"
      }
    }
  }
  attr {
    key: "use_locking"
    value {
      b: true
    }
  }
  attr {
    key: "validate_shape"
    value {
      b: true
    }
  }
}
node {
  name: "x_channel/dense_1/kernel/read"
  op: "Identity"
  input: "x_channel/dense_1/kernel"
  attr {
    key: "T"
    value {
      type: DT_FLOAT
    }
  }
  attr {
    key: "_class"
    value {
      list {
        s: "loc:@x_channel/dense_1/kernel"
      }
    }
  }
}
node {
  name: "x_channel/dense_1/bias/Initializer/zeros"
  op: "Const"
  attr {
    key: "_class"
    value {
      list {
        s: "loc:@x_channel/dense_1/bias"
      }
    }
  }
  attr {
    key: "dtype"
    value {
      type: DT_FLOAT
    }
  }
  attr {
    key: "value"
    value {
      tensor {
        dtype: DT_FLOAT
        tensor_shape {
          dim {
            size: 300
          }
        }
        float_val: 0.0
      }
    }
  }
}
node {
  name: "x_channel/dense_1/bias"
  op: "VariableV2"
  attr {
    key: "_class"
    value {
      list {
        s: "loc:@x_channel/dense_1/bias"
      }
    }
  }
  attr {
    key: "container"
    value {
      s: ""
    }
  }
  attr {
    key: "dtype"
    value {
      type: DT_FLOAT
    }
  }
  attr {
    key: "shape"
    value {
      shape {
        dim {
          size: 300
        }
      }
    }
  }
  attr {
    key: "shared_name"
    value {
      s: ""
    }
  }
}
node {
  name: "x_channel/dense_1/bias/Assign"
  op: "Assign"
  input: "x_channel/dense_1/bias"
  input: "x_channel/dense_1/bias/Initializer/zeros"
  attr {
    key: "T"
    value {
      type: DT_FLOAT
    }
  }
  attr {
    key: "_class"
    value {
      list {
        s: "loc:@x_channel/dense_1/bias"
      }
    }
  }
  attr {
    key: "use_locking"
    value {
      b: true
    }
  }
  attr {
    key: "validate_shape"
    value {
      b: true
    }
  }
}
node {
  name: "x_channel/dense_1/bias/read"
  op: "Identity"
  input: "x_channel/dense_1/bias"
  attr {
    key: "T"
    value {
      type: DT_FLOAT
    }
  }
  attr {
    key: "_class"
    value {
      list {
        s: "loc:@x_channel/dense_1/bias"
      }
    }
  }
}
node {
  name: "x_channel/dense_1/MatMul"
  op: "MatMul"
  input: "x_channel/batch_normalization/batchnorm/add_1"
  input: "x_channel/dense_1/kernel/read"
  attr {
    key: "T"
    value {
      type: DT_FLOAT
    }
  }
  attr {
    key: "transpose_a"
    value {
      b: false
    }
  }
  attr {
    key: "transpose_b"
    value {
      b: false
    }
  }
}
node {
  name: "x_channel/dense_1/BiasAdd"
  op: "BiasAdd"
  input: "x_channel/dense_1/MatMul"
  input: "x_channel/dense_1/bias/read"
  attr {
    key: "T"
    value {
      type: DT_FLOAT
    }
  }
  attr {
    key: "data_format"
    value {
      s: "NHWC"
    }
  }
}
node {
  name: "x_channel/dense_1/Tanh"
  op: "Tanh"
  input: "x_channel/dense_1/BiasAdd"
  attr {
    key: "T"
    value {
      type: DT_FLOAT
    }
  }
}
node {
  name: "x_channel/batch_normalization_1/gamma/Initializer/ones"
  op: "Const"
  attr {
    key: "_class"
    value {
      list {
        s: "loc:@x_channel/batch_normalization_1/gamma"
      }
    }
  }
  attr {
    key: "dtype"
    value {
      type: DT_FLOAT
    }
  }
  attr {
    key: "value"
    value {
      tensor {
        dtype: DT_FLOAT
        tensor_shape {
          dim {
            size: 300
          }
        }
        float_val: 1.0
      }
    }
  }
}
node {
  name: "x_channel/batch_normalization_1/gamma"
  op: "VariableV2"
  attr {
    key: "_class"
    value {
      list {
        s: "loc:@x_channel/batch_normalization_1/gamma"
      }
    }
  }
  attr {
    key: "container"
    value {
      s: ""
    }
  }
  attr {
    key: "dtype"
    value {
      type: DT_FLOAT
    }
  }
  attr {
    key: "shape"
    value {
      shape {
        dim {
          size: 300
        }
      }
    }
  }
  attr {
    key: "shared_name"
    value {
      s: ""
    }
  }
}
node {
  name: "x_channel/batch_normalization_1/gamma/Assign"
  op: "Assign"
  input: "x_channel/batch_normalization_1/gamma"
  input: "x_channel/batch_normalization_1/gamma/Initializer/ones"
  attr {
    key: "T"
    value {
      type: DT_FLOAT
    }
  }
  attr {
    key: "_class"
    value {
      list {
        s: "loc:@x_channel/batch_normalization_1/gamma"
      }
    }
  }
  attr {
    key: "use_locking"
    value {
      b: true
    }
  }
  attr {
    key: "validate_shape"
    value {
      b: true
    }
  }
}
node {
  name: "x_channel/batch_normalization_1/gamma/read"
  op: "Identity"
  input: "x_channel/batch_normalization_1/gamma"
  attr {
    key: "T"
    value {
      type: DT_FLOAT
    }
  }
  attr {
    key: "_class"
    value {
      list {
        s: "loc:@x_channel/batch_normalization_1/gamma"
      }
    }
  }
}
node {
  name: "x_channel/batch_normalization_1/beta/Initializer/zeros"
  op: "Const"
  attr {
    key: "_class"
    value {
      list {
        s: "loc:@x_channel/batch_normalization_1/beta"
      }
    }
  }
  attr {
    key: "dtype"
    value {
      type: DT_FLOAT
    }
  }
  attr {
    key: "value"
    value {
      tensor {
        dtype: DT_FLOAT
        tensor_shape {
          dim {
            size: 300
          }
        }
        float_val: 0.0
      }
    }
  }
}
node {
  name: "x_channel/batch_normalization_1/beta"
  op: "VariableV2"
  attr {
    key: "_class"
    value {
      list {
        s: "loc:@x_channel/batch_normalization_1/beta"
      }
    }
  }
  attr {
    key: "container"
    value {
      s: ""
    }
  }
  attr {
    key: "dtype"
    value {
      type: DT_FLOAT
    }
  }
  attr {
    key: "shape"
    value {
      shape {
        dim {
          size: 300
        }
      }
    }
  }
  attr {
    key: "shared_name"
    value {
      s: ""
    }
  }
}
node {
  name: "x_channel/batch_normalization_1/beta/Assign"
  op: "Assign"
  input: "x_channel/batch_normalization_1/beta"
  input: "x_channel/batch_normalization_1/beta/Initializer/zeros"
  attr {
    key: "T"
    value {
      type: DT_FLOAT
    }
  }
  attr {
    key: "_class"
    value {
      list {
        s: "loc:@x_channel/batch_normalization_1/beta"
      }
    }
  }
  attr {
    key: "use_locking"
    value {
      b: true
    }
  }
  attr {
    key: "validate_shape"
    value {
      b: true
    }
  }
}
node {
  name: "x_channel/batch_normalization_1/beta/read"
  op: "Identity"
  input: "x_channel/batch_normalization_1/beta"
  attr {
    key: "T"
    value {
      type: DT_FLOAT
    }
  }
  attr {
    key: "_class"
    value {
      list {
        s: "loc:@x_channel/batch_normalization_1/beta"
      }
    }
  }
}
node {
  name: "x_channel/batch_normalization_1/moving_mean/Initializer/zeros"
  op: "Const"
  attr {
    key: "_class"
    value {
      list {
        s: "loc:@x_channel/batch_normalization_1/moving_mean"
      }
    }
  }
  attr {
    key: "dtype"
    value {
      type: DT_FLOAT
    }
  }
  attr {
    key: "value"
    value {
      tensor {
        dtype: DT_FLOAT
        tensor_shape {
          dim {
            size: 300
          }
        }
        float_val: 0.0
      }
    }
  }
}
node {
  name: "x_channel/batch_normalization_1/moving_mean"
  op: "VariableV2"
  attr {
    key: "_class"
    value {
      list {
        s: "loc:@x_channel/batch_normalization_1/moving_mean"
      }
    }
  }
  attr {
    key: "container"
    value {
      s: ""
    }
  }
  attr {
    key: "dtype"
    value {
      type: DT_FLOAT
    }
  }
  attr {
    key: "shape"
    value {
      shape {
        dim {
          size: 300
        }
      }
    }
  }
  attr {
    key: "shared_name"
    value {
      s: ""
    }
  }
}
node {
  name: "x_channel/batch_normalization_1/moving_mean/Assign"
  op: "Assign"
  input: "x_channel/batch_normalization_1/moving_mean"
  input: "x_channel/batch_normalization_1/moving_mean/Initializer/zeros"
  attr {
    key: "T"
    value {
      type: DT_FLOAT
    }
  }
  attr {
    key: "_class"
    value {
      list {
        s: "loc:@x_channel/batch_normalization_1/moving_mean"
      }
    }
  }
  attr {
    key: "use_locking"
    value {
      b: true
    }
  }
  attr {
    key: "validate_shape"
    value {
      b: true
    }
  }
}
node {
  name: "x_channel/batch_normalization_1/moving_mean/read"
  op: "Identity"
  input: "x_channel/batch_normalization_1/moving_mean"
  attr {
    key: "T"
    value {
      type: DT_FLOAT
    }
  }
  attr {
    key: "_class"
    value {
      list {
        s: "loc:@x_channel/batch_normalization_1/moving_mean"
      }
    }
  }
}
node {
  name: "x_channel/batch_normalization_1/moving_variance/Initializer/ones"
  op: "Const"
  attr {
    key: "_class"
    value {
      list {
        s: "loc:@x_channel/batch_normalization_1/moving_variance"
      }
    }
  }
  attr {
    key: "dtype"
    value {
      type: DT_FLOAT
    }
  }
  attr {
    key: "value"
    value {
      tensor {
        dtype: DT_FLOAT
        tensor_shape {
          dim {
            size: 300
          }
        }
        float_val: 1.0
      }
    }
  }
}
node {
  name: "x_channel/batch_normalization_1/moving_variance"
  op: "VariableV2"
  attr {
    key: "_class"
    value {
      list {
        s: "loc:@x_channel/batch_normalization_1/moving_variance"
      }
    }
  }
  attr {
    key: "container"
    value {
      s: ""
    }
  }
  attr {
    key: "dtype"
    value {
      type: DT_FLOAT
    }
  }
  attr {
    key: "shape"
    value {
      shape {
        dim {
          size: 300
        }
      }
    }
  }
  attr {
    key: "shared_name"
    value {
      s: ""
    }
  }
}
node {
  name: "x_channel/batch_normalization_1/moving_variance/Assign"
  op: "Assign"
  input: "x_channel/batch_normalization_1/moving_variance"
  input: "x_channel/batch_normalization_1/moving_variance/Initializer/ones"
  attr {
    key: "T"
    value {
      type: DT_FLOAT
    }
  }
  attr {
    key: "_class"
    value {
      list {
        s: "loc:@x_channel/batch_normalization_1/moving_variance"
      }
    }
  }
  attr {
    key: "use_locking"
    value {
      b: true
    }
  }
  attr {
    key: "validate_shape"
    value {
      b: true
    }
  }
}
node {
  name: "x_channel/batch_normalization_1/moving_variance/read"
  op: "Identity"
  input: "x_channel/batch_normalization_1/moving_variance"
  attr {
    key: "T"
    value {
      type: DT_FLOAT
    }
  }
  attr {
    key: "_class"
    value {
      list {
        s: "loc:@x_channel/batch_normalization_1/moving_variance"
      }
    }
  }
}
node {
  name: "x_channel/batch_normalization_1/batchnorm/add/y"
  op: "Const"
  attr {
    key: "dtype"
    value {
      type: DT_FLOAT
    }
  }
  attr {
    key: "value"
    value {
      tensor {
        dtype: DT_FLOAT
        tensor_shape {
        }
        float_val: 0.0010000000474974513
      }
    }
  }
}
node {
  name: "x_channel/batch_normalization_1/batchnorm/add"
  op: "Add"
  input: "x_channel/batch_normalization_1/moving_variance/read"
  input: "x_channel/batch_normalization_1/batchnorm/add/y"
  attr {
    key: "T"
    value {
      type: DT_FLOAT
    }
  }
}
node {
  name: "x_channel/batch_normalization_1/batchnorm/Rsqrt"
  op: "Rsqrt"
  input: "x_channel/batch_normalization_1/batchnorm/add"
  attr {
    key: "T"
    value {
      type: DT_FLOAT
    }
  }
}
node {
  name: "x_channel/batch_normalization_1/batchnorm/mul"
  op: "Mul"
  input: "x_channel/batch_normalization_1/batchnorm/Rsqrt"
  input: "x_channel/batch_normalization_1/gamma/read"
  attr {
    key: "T"
    value {
      type: DT_FLOAT
    }
  }
}
node {
  name: "x_channel/batch_normalization_1/batchnorm/mul_1"
  op: "Mul"
  input: "x_channel/dense_1/Tanh"
  input: "x_channel/batch_normalization_1/batchnorm/mul"
  attr {
    key: "T"
    value {
      type: DT_FLOAT
    }
  }
}
node {
  name: "x_channel/batch_normalization_1/batchnorm/mul_2"
  op: "Mul"
  input: "x_channel/batch_normalization_1/moving_mean/read"
  input: "x_channel/batch_normalization_1/batchnorm/mul"
  attr {
    key: "T"
    value {
      type: DT_FLOAT
    }
  }
}
node {
  name: "x_channel/batch_normalization_1/batchnorm/sub"
  op: "Sub"
  input: "x_channel/batch_normalization_1/beta/read"
  input: "x_channel/batch_normalization_1/batchnorm/mul_2"
  attr {
    key: "T"
    value {
      type: DT_FLOAT
    }
  }
}
node {
  name: "x_channel/batch_normalization_1/batchnorm/add_1"
  op: "Add"
  input: "x_channel/batch_normalization_1/batchnorm/mul_1"
  input: "x_channel/batch_normalization_1/batchnorm/sub"
  attr {
    key: "T"
    value {
      type: DT_FLOAT
    }
  }
}
node {
  name: "x_channel/encoding/kernel/Initializer/random_uniform/shape"
  op: "Const"
  attr {
    key: "_class"
    value {
      list {
        s: "loc:@x_channel/encoding/kernel"
      }
    }
  }
  attr {
    key: "dtype"
    value {
      type: DT_INT32
    }
  }
  attr {
    key: "value"
    value {
      tensor {
        dtype: DT_INT32
        tensor_shape {
          dim {
            size: 2
          }
        }
        tensor_content: ",\001\000\000\364\001\000\000"
      }
    }
  }
}
node {
  name: "x_channel/encoding/kernel/Initializer/random_uniform/min"
  op: "Const"
  attr {
    key: "_class"
    value {
      list {
        s: "loc:@x_channel/encoding/kernel"
      }
    }
  }
  attr {
    key: "dtype"
    value {
      type: DT_FLOAT
    }
  }
  attr {
    key: "value"
    value {
      tensor {
        dtype: DT_FLOAT
        tensor_shape {
        }
        float_val: -0.08660253882408142
      }
    }
  }
}
node {
  name: "x_channel/encoding/kernel/Initializer/random_uniform/max"
  op: "Const"
  attr {
    key: "_class"
    value {
      list {
        s: "loc:@x_channel/encoding/kernel"
      }
    }
  }
  attr {
    key: "dtype"
    value {
      type: DT_FLOAT
    }
  }
  attr {
    key: "value"
    value {
      tensor {
        dtype: DT_FLOAT
        tensor_shape {
        }
        float_val: 0.08660253882408142
      }
    }
  }
}
node {
  name: "x_channel/encoding/kernel/Initializer/random_uniform/RandomUniform"
  op: "RandomUniform"
  input: "x_channel/encoding/kernel/Initializer/random_uniform/shape"
  attr {
    key: "T"
    value {
      type: DT_INT32
    }
  }
  attr {
    key: "_class"
    value {
      list {
        s: "loc:@x_channel/encoding/kernel"
      }
    }
  }
  attr {
    key: "dtype"
    value {
      type: DT_FLOAT
    }
  }
  attr {
    key: "seed"
    value {
      i: 0
    }
  }
  attr {
    key: "seed2"
    value {
      i: 0
    }
  }
}
node {
  name: "x_channel/encoding/kernel/Initializer/random_uniform/sub"
  op: "Sub"
  input: "x_channel/encoding/kernel/Initializer/random_uniform/max"
  input: "x_channel/encoding/kernel/Initializer/random_uniform/min"
  attr {
    key: "T"
    value {
      type: DT_FLOAT
    }
  }
  attr {
    key: "_class"
    value {
      list {
        s: "loc:@x_channel/encoding/kernel"
      }
    }
  }
}
node {
  name: "x_channel/encoding/kernel/Initializer/random_uniform/mul"
  op: "Mul"
  input: "x_channel/encoding/kernel/Initializer/random_uniform/RandomUniform"
  input: "x_channel/encoding/kernel/Initializer/random_uniform/sub"
  attr {
    key: "T"
    value {
      type: DT_FLOAT
    }
  }
  attr {
    key: "_class"
    value {
      list {
        s: "loc:@x_channel/encoding/kernel"
      }
    }
  }
}
node {
  name: "x_channel/encoding/kernel/Initializer/random_uniform"
  op: "Add"
  input: "x_channel/encoding/kernel/Initializer/random_uniform/mul"
  input: "x_channel/encoding/kernel/Initializer/random_uniform/min"
  attr {
    key: "T"
    value {
      type: DT_FLOAT
    }
  }
  attr {
    key: "_class"
    value {
      list {
        s: "loc:@x_channel/encoding/kernel"
      }
    }
  }
}
node {
  name: "x_channel/encoding/kernel"
  op: "VariableV2"
  attr {
    key: "_class"
    value {
      list {
        s: "loc:@x_channel/encoding/kernel"
      }
    }
  }
  attr {
    key: "container"
    value {
      s: ""
    }
  }
  attr {
    key: "dtype"
    value {
      type: DT_FLOAT
    }
  }
  attr {
    key: "shape"
    value {
      shape {
        dim {
          size: 300
        }
        dim {
          size: 500
        }
      }
    }
  }
  attr {
    key: "shared_name"
    value {
      s: ""
    }
  }
}
node {
  name: "x_channel/encoding/kernel/Assign"
  op: "Assign"
  input: "x_channel/encoding/kernel"
  input: "x_channel/encoding/kernel/Initializer/random_uniform"
  attr {
    key: "T"
    value {
      type: DT_FLOAT
    }
  }
  attr {
    key: "_class"
    value {
      list {
        s: "loc:@x_channel/encoding/kernel"
      }
    }
  }
  attr {
    key: "use_locking"
    value {
      b: true
    }
  }
  attr {
    key: "validate_shape"
    value {
      b: true
    }
  }
}
node {
  name: "x_channel/encoding/kernel/read"
  op: "Identity"
  input: "x_channel/encoding/kernel"
  attr {
    key: "T"
    value {
      type: DT_FLOAT
    }
  }
  attr {
    key: "_class"
    value {
      list {
        s: "loc:@x_channel/encoding/kernel"
      }
    }
  }
}
node {
  name: "x_channel/encoding/bias/Initializer/zeros"
  op: "Const"
  attr {
    key: "_class"
    value {
      list {
        s: "loc:@x_channel/encoding/bias"
      }
    }
  }
  attr {
    key: "dtype"
    value {
      type: DT_FLOAT
    }
  }
  attr {
    key: "value"
    value {
      tensor {
        dtype: DT_FLOAT
        tensor_shape {
          dim {
            size: 500
          }
        }
        float_val: 0.0
      }
    }
  }
}
node {
  name: "x_channel/encoding/bias"
  op: "VariableV2"
  attr {
    key: "_class"
    value {
      list {
        s: "loc:@x_channel/encoding/bias"
      }
    }
  }
  attr {
    key: "container"
    value {
      s: ""
    }
  }
  attr {
    key: "dtype"
    value {
      type: DT_FLOAT
    }
  }
  attr {
    key: "shape"
    value {
      shape {
        dim {
          size: 500
        }
      }
    }
  }
  attr {
    key: "shared_name"
    value {
      s: ""
    }
  }
}
node {
  name: "x_channel/encoding/bias/Assign"
  op: "Assign"
  input: "x_channel/encoding/bias"
  input: "x_channel/encoding/bias/Initializer/zeros"
  attr {
    key: "T"
    value {
      type: DT_FLOAT
    }
  }
  attr {
    key: "_class"
    value {
      list {
        s: "loc:@x_channel/encoding/bias"
      }
    }
  }
  attr {
    key: "use_locking"
    value {
      b: true
    }
  }
  attr {
    key: "validate_shape"
    value {
      b: true
    }
  }
}
node {
  name: "x_channel/encoding/bias/read"
  op: "Identity"
  input: "x_channel/encoding/bias"
  attr {
    key: "T"
    value {
      type: DT_FLOAT
    }
  }
  attr {
    key: "_class"
    value {
      list {
        s: "loc:@x_channel/encoding/bias"
      }
    }
  }
}
node {
  name: "x_channel/encoding/MatMul"
  op: "MatMul"
  input: "x_channel/batch_normalization_1/batchnorm/add_1"
  input: "x_channel/encoding/kernel/read"
  attr {
    key: "T"
    value {
      type: DT_FLOAT
    }
  }
  attr {
    key: "transpose_a"
    value {
      b: false
    }
  }
  attr {
    key: "transpose_b"
    value {
      b: false
    }
  }
}
node {
  name: "x_channel/encoding/BiasAdd"
  op: "BiasAdd"
  input: "x_channel/encoding/MatMul"
  input: "x_channel/encoding/bias/read"
  attr {
    key: "T"
    value {
      type: DT_FLOAT
    }
  }
  attr {
    key: "data_format"
    value {
      s: "NHWC"
    }
  }
}
node {
  name: "x_channel/encoding/Tanh"
  op: "Tanh"
  input: "x_channel/encoding/BiasAdd"
  attr {
    key: "T"
    value {
      type: DT_FLOAT
    }
  }
}
node {
  name: "y_channel/dense/kernel/Initializer/random_uniform/shape"
  op: "Const"
  attr {
    key: "_class"
    value {
      list {
        s: "loc:@y_channel/dense/kernel"
      }
    }
  }
  attr {
    key: "dtype"
    value {
      type: DT_INT32
    }
  }
  attr {
    key: "value"
    value {
      tensor {
        dtype: DT_INT32
        tensor_shape {
          dim {
            size: 2
          }
        }
        tensor_content: "@\001\000\000,\001\000\000"
      }
    }
  }
}
node {
  name: "y_channel/dense/kernel/Initializer/random_uniform/min"
  op: "Const"
  attr {
    key: "_class"
    value {
      list {
        s: "loc:@y_channel/dense/kernel"
      }
    }
  }
  attr {
    key: "dtype"
    value {
      type: DT_FLOAT
    }
  }
  attr {
    key: "value"
    value {
      tensor {
        dtype: DT_FLOAT
        tensor_shape {
        }
        float_val: -0.09837387502193451
      }
    }
  }
}
node {
  name: "y_channel/dense/kernel/Initializer/random_uniform/max"
  op: "Const"
  attr {
    key: "_class"
    value {
      list {
        s: "loc:@y_channel/dense/kernel"
      }
    }
  }
  attr {
    key: "dtype"
    value {
      type: DT_FLOAT
    }
  }
  attr {
    key: "value"
    value {
      tensor {
        dtype: DT_FLOAT
        tensor_shape {
        }
        float_val: 0.09837387502193451
      }
    }
  }
}
node {
  name: "y_channel/dense/kernel/Initializer/random_uniform/RandomUniform"
  op: "RandomUniform"
  input: "y_channel/dense/kernel/Initializer/random_uniform/shape"
  attr {
    key: "T"
    value {
      type: DT_INT32
    }
  }
  attr {
    key: "_class"
    value {
      list {
        s: "loc:@y_channel/dense/kernel"
      }
    }
  }
  attr {
    key: "dtype"
    value {
      type: DT_FLOAT
    }
  }
  attr {
    key: "seed"
    value {
      i: 0
    }
  }
  attr {
    key: "seed2"
    value {
      i: 0
    }
  }
}
node {
  name: "y_channel/dense/kernel/Initializer/random_uniform/sub"
  op: "Sub"
  input: "y_channel/dense/kernel/Initializer/random_uniform/max"
  input: "y_channel/dense/kernel/Initializer/random_uniform/min"
  attr {
    key: "T"
    value {
      type: DT_FLOAT
    }
  }
  attr {
    key: "_class"
    value {
      list {
        s: "loc:@y_channel/dense/kernel"
      }
    }
  }
}
node {
  name: "y_channel/dense/kernel/Initializer/random_uniform/mul"
  op: "Mul"
  input: "y_channel/dense/kernel/Initializer/random_uniform/RandomUniform"
  input: "y_channel/dense/kernel/Initializer/random_uniform/sub"
  attr {
    key: "T"
    value {
      type: DT_FLOAT
    }
  }
  attr {
    key: "_class"
    value {
      list {
        s: "loc:@y_channel/dense/kernel"
      }
    }
  }
}
node {
  name: "y_channel/dense/kernel/Initializer/random_uniform"
  op: "Add"
  input: "y_channel/dense/kernel/Initializer/random_uniform/mul"
  input: "y_channel/dense/kernel/Initializer/random_uniform/min"
  attr {
    key: "T"
    value {
      type: DT_FLOAT
    }
  }
  attr {
    key: "_class"
    value {
      list {
        s: "loc:@y_channel/dense/kernel"
      }
    }
  }
}
node {
  name: "y_channel/dense/kernel"
  op: "VariableV2"
  attr {
    key: "_class"
    value {
      list {
        s: "loc:@y_channel/dense/kernel"
      }
    }
  }
  attr {
    key: "container"
    value {
      s: ""
    }
  }
  attr {
    key: "dtype"
    value {
      type: DT_FLOAT
    }
  }
  attr {
    key: "shape"
    value {
      shape {
        dim {
          size: 320
        }
        dim {
          size: 300
        }
      }
    }
  }
  attr {
    key: "shared_name"
    value {
      s: ""
    }
  }
}
node {
  name: "y_channel/dense/kernel/Assign"
  op: "Assign"
  input: "y_channel/dense/kernel"
  input: "y_channel/dense/kernel/Initializer/random_uniform"
  attr {
    key: "T"
    value {
      type: DT_FLOAT
    }
  }
  attr {
    key: "_class"
    value {
      list {
        s: "loc:@y_channel/dense/kernel"
      }
    }
  }
  attr {
    key: "use_locking"
    value {
      b: true
    }
  }
  attr {
    key: "validate_shape"
    value {
      b: true
    }
  }
}
node {
  name: "y_channel/dense/kernel/read"
  op: "Identity"
  input: "y_channel/dense/kernel"
  attr {
    key: "T"
    value {
      type: DT_FLOAT
    }
  }
  attr {
    key: "_class"
    value {
      list {
        s: "loc:@y_channel/dense/kernel"
      }
    }
  }
}
node {
  name: "y_channel/dense/bias/Initializer/zeros"
  op: "Const"
  attr {
    key: "_class"
    value {
      list {
        s: "loc:@y_channel/dense/bias"
      }
    }
  }
  attr {
    key: "dtype"
    value {
      type: DT_FLOAT
    }
  }
  attr {
    key: "value"
    value {
      tensor {
        dtype: DT_FLOAT
        tensor_shape {
          dim {
            size: 300
          }
        }
        float_val: 0.0
      }
    }
  }
}
node {
  name: "y_channel/dense/bias"
  op: "VariableV2"
  attr {
    key: "_class"
    value {
      list {
        s: "loc:@y_channel/dense/bias"
      }
    }
  }
  attr {
    key: "container"
    value {
      s: ""
    }
  }
  attr {
    key: "dtype"
    value {
      type: DT_FLOAT
    }
  }
  attr {
    key: "shape"
    value {
      shape {
        dim {
          size: 300
        }
      }
    }
  }
  attr {
    key: "shared_name"
    value {
      s: ""
    }
  }
}
node {
  name: "y_channel/dense/bias/Assign"
  op: "Assign"
  input: "y_channel/dense/bias"
  input: "y_channel/dense/bias/Initializer/zeros"
  attr {
    key: "T"
    value {
      type: DT_FLOAT
    }
  }
  attr {
    key: "_class"
    value {
      list {
        s: "loc:@y_channel/dense/bias"
      }
    }
  }
  attr {
    key: "use_locking"
    value {
      b: true
    }
  }
  attr {
    key: "validate_shape"
    value {
      b: true
    }
  }
}
node {
  name: "y_channel/dense/bias/read"
  op: "Identity"
  input: "y_channel/dense/bias"
  attr {
    key: "T"
    value {
      type: DT_FLOAT
    }
  }
  attr {
    key: "_class"
    value {
      list {
        s: "loc:@y_channel/dense/bias"
      }
    }
  }
}
node {
  name: "y_channel/dense/MatMul"
  op: "MatMul"
  input: "Sum_1"
  input: "y_channel/dense/kernel/read"
  attr {
    key: "T"
    value {
      type: DT_FLOAT
    }
  }
  attr {
    key: "transpose_a"
    value {
      b: false
    }
  }
  attr {
    key: "transpose_b"
    value {
      b: false
    }
  }
}
node {
  name: "y_channel/dense/BiasAdd"
  op: "BiasAdd"
  input: "y_channel/dense/MatMul"
  input: "y_channel/dense/bias/read"
  attr {
    key: "T"
    value {
      type: DT_FLOAT
    }
  }
  attr {
    key: "data_format"
    value {
      s: "NHWC"
    }
  }
}
node {
  name: "y_channel/dense/Tanh"
  op: "Tanh"
  input: "y_channel/dense/BiasAdd"
  attr {
    key: "T"
    value {
      type: DT_FLOAT
    }
  }
}
node {
  name: "y_channel/batch_normalization/gamma/Initializer/ones"
  op: "Const"
  attr {
    key: "_class"
    value {
      list {
        s: "loc:@y_channel/batch_normalization/gamma"
      }
    }
  }
  attr {
    key: "dtype"
    value {
      type: DT_FLOAT
    }
  }
  attr {
    key: "value"
    value {
      tensor {
        dtype: DT_FLOAT
        tensor_shape {
          dim {
            size: 300
          }
        }
        float_val: 1.0
      }
    }
  }
}
node {
  name: "y_channel/batch_normalization/gamma"
  op: "VariableV2"
  attr {
    key: "_class"
    value {
      list {
        s: "loc:@y_channel/batch_normalization/gamma"
      }
    }
  }
  attr {
    key: "container"
    value {
      s: ""
    }
  }
  attr {
    key: "dtype"
    value {
      type: DT_FLOAT
    }
  }
  attr {
    key: "shape"
    value {
      shape {
        dim {
          size: 300
        }
      }
    }
  }
  attr {
    key: "shared_name"
    value {
      s: ""
    }
  }
}
node {
  name: "y_channel/batch_normalization/gamma/Assign"
  op: "Assign"
  input: "y_channel/batch_normalization/gamma"
  input: "y_channel/batch_normalization/gamma/Initializer/ones"
  attr {
    key: "T"
    value {
      type: DT_FLOAT
    }
  }
  attr {
    key: "_class"
    value {
      list {
        s: "loc:@y_channel/batch_normalization/gamma"
      }
    }
  }
  attr {
    key: "use_locking"
    value {
      b: true
    }
  }
  attr {
    key: "validate_shape"
    value {
      b: true
    }
  }
}
node {
  name: "y_channel/batch_normalization/gamma/read"
  op: "Identity"
  input: "y_channel/batch_normalization/gamma"
  attr {
    key: "T"
    value {
      type: DT_FLOAT
    }
  }
  attr {
    key: "_class"
    value {
      list {
        s: "loc:@y_channel/batch_normalization/gamma"
      }
    }
  }
}
node {
  name: "y_channel/batch_normalization/beta/Initializer/zeros"
  op: "Const"
  attr {
    key: "_class"
    value {
      list {
        s: "loc:@y_channel/batch_normalization/beta"
      }
    }
  }
  attr {
    key: "dtype"
    value {
      type: DT_FLOAT
    }
  }
  attr {
    key: "value"
    value {
      tensor {
        dtype: DT_FLOAT
        tensor_shape {
          dim {
            size: 300
          }
        }
        float_val: 0.0
      }
    }
  }
}
node {
  name: "y_channel/batch_normalization/beta"
  op: "VariableV2"
  attr {
    key: "_class"
    value {
      list {
        s: "loc:@y_channel/batch_normalization/beta"
      }
    }
  }
  attr {
    key: "container"
    value {
      s: ""
    }
  }
  attr {
    key: "dtype"
    value {
      type: DT_FLOAT
    }
  }
  attr {
    key: "shape"
    value {
      shape {
        dim {
          size: 300
        }
      }
    }
  }
  attr {
    key: "shared_name"
    value {
      s: ""
    }
  }
}
node {
  name: "y_channel/batch_normalization/beta/Assign"
  op: "Assign"
  input: "y_channel/batch_normalization/beta"
  input: "y_channel/batch_normalization/beta/Initializer/zeros"
  attr {
    key: "T"
    value {
      type: DT_FLOAT
    }
  }
  attr {
    key: "_class"
    value {
      list {
        s: "loc:@y_channel/batch_normalization/beta"
      }
    }
  }
  attr {
    key: "use_locking"
    value {
      b: true
    }
  }
  attr {
    key: "validate_shape"
    value {
      b: true
    }
  }
}
node {
  name: "y_channel/batch_normalization/beta/read"
  op: "Identity"
  input: "y_channel/batch_normalization/beta"
  attr {
    key: "T"
    value {
      type: DT_FLOAT
    }
  }
  attr {
    key: "_class"
    value {
      list {
        s: "loc:@y_channel/batch_normalization/beta"
      }
    }
  }
}
node {
  name: "y_channel/batch_normalization/moving_mean/Initializer/zeros"
  op: "Const"
  attr {
    key: "_class"
    value {
      list {
        s: "loc:@y_channel/batch_normalization/moving_mean"
      }
    }
  }
  attr {
    key: "dtype"
    value {
      type: DT_FLOAT
    }
  }
  attr {
    key: "value"
    value {
      tensor {
        dtype: DT_FLOAT
        tensor_shape {
          dim {
            size: 300
          }
        }
        float_val: 0.0
      }
    }
  }
}
node {
  name: "y_channel/batch_normalization/moving_mean"
  op: "VariableV2"
  attr {
    key: "_class"
    value {
      list {
        s: "loc:@y_channel/batch_normalization/moving_mean"
      }
    }
  }
  attr {
    key: "container"
    value {
      s: ""
    }
  }
  attr {
    key: "dtype"
    value {
      type: DT_FLOAT
    }
  }
  attr {
    key: "shape"
    value {
      shape {
        dim {
          size: 300
        }
      }
    }
  }
  attr {
    key: "shared_name"
    value {
      s: ""
    }
  }
}
node {
  name: "y_channel/batch_normalization/moving_mean/Assign"
  op: "Assign"
  input: "y_channel/batch_normalization/moving_mean"
  input: "y_channel/batch_normalization/moving_mean/Initializer/zeros"
  attr {
    key: "T"
    value {
      type: DT_FLOAT
    }
  }
  attr {
    key: "_class"
    value {
      list {
        s: "loc:@y_channel/batch_normalization/moving_mean"
      }
    }
  }
  attr {
    key: "use_locking"
    value {
      b: true
    }
  }
  attr {
    key: "validate_shape"
    value {
      b: true
    }
  }
}
node {
  name: "y_channel/batch_normalization/moving_mean/read"
  op: "Identity"
  input: "y_channel/batch_normalization/moving_mean"
  attr {
    key: "T"
    value {
      type: DT_FLOAT
    }
  }
  attr {
    key: "_class"
    value {
      list {
        s: "loc:@y_channel/batch_normalization/moving_mean"
      }
    }
  }
}
node {
  name: "y_channel/batch_normalization/moving_variance/Initializer/ones"
  op: "Const"
  attr {
    key: "_class"
    value {
      list {
        s: "loc:@y_channel/batch_normalization/moving_variance"
      }
    }
  }
  attr {
    key: "dtype"
    value {
      type: DT_FLOAT
    }
  }
  attr {
    key: "value"
    value {
      tensor {
        dtype: DT_FLOAT
        tensor_shape {
          dim {
            size: 300
          }
        }
        float_val: 1.0
      }
    }
  }
}
node {
  name: "y_channel/batch_normalization/moving_variance"
  op: "VariableV2"
  attr {
    key: "_class"
    value {
      list {
        s: "loc:@y_channel/batch_normalization/moving_variance"
      }
    }
  }
  attr {
    key: "container"
    value {
      s: ""
    }
  }
  attr {
    key: "dtype"
    value {
      type: DT_FLOAT
    }
  }
  attr {
    key: "shape"
    value {
      shape {
        dim {
          size: 300
        }
      }
    }
  }
  attr {
    key: "shared_name"
    value {
      s: ""
    }
  }
}
node {
  name: "y_channel/batch_normalization/moving_variance/Assign"
  op: "Assign"
  input: "y_channel/batch_normalization/moving_variance"
  input: "y_channel/batch_normalization/moving_variance/Initializer/ones"
  attr {
    key: "T"
    value {
      type: DT_FLOAT
    }
  }
  attr {
    key: "_class"
    value {
      list {
        s: "loc:@y_channel/batch_normalization/moving_variance"
      }
    }
  }
  attr {
    key: "use_locking"
    value {
      b: true
    }
  }
  attr {
    key: "validate_shape"
    value {
      b: true
    }
  }
}
node {
  name: "y_channel/batch_normalization/moving_variance/read"
  op: "Identity"
  input: "y_channel/batch_normalization/moving_variance"
  attr {
    key: "T"
    value {
      type: DT_FLOAT
    }
  }
  attr {
    key: "_class"
    value {
      list {
        s: "loc:@y_channel/batch_normalization/moving_variance"
      }
    }
  }
}
node {
  name: "y_channel/batch_normalization/batchnorm/add/y"
  op: "Const"
  attr {
    key: "dtype"
    value {
      type: DT_FLOAT
    }
  }
  attr {
    key: "value"
    value {
      tensor {
        dtype: DT_FLOAT
        tensor_shape {
        }
        float_val: 0.0010000000474974513
      }
    }
  }
}
node {
  name: "y_channel/batch_normalization/batchnorm/add"
  op: "Add"
  input: "y_channel/batch_normalization/moving_variance/read"
  input: "y_channel/batch_normalization/batchnorm/add/y"
  attr {
    key: "T"
    value {
      type: DT_FLOAT
    }
  }
}
node {
  name: "y_channel/batch_normalization/batchnorm/Rsqrt"
  op: "Rsqrt"
  input: "y_channel/batch_normalization/batchnorm/add"
  attr {
    key: "T"
    value {
      type: DT_FLOAT
    }
  }
}
node {
  name: "y_channel/batch_normalization/batchnorm/mul"
  op: "Mul"
  input: "y_channel/batch_normalization/batchnorm/Rsqrt"
  input: "y_channel/batch_normalization/gamma/read"
  attr {
    key: "T"
    value {
      type: DT_FLOAT
    }
  }
}
node {
  name: "y_channel/batch_normalization/batchnorm/mul_1"
  op: "Mul"
  input: "y_channel/dense/Tanh"
  input: "y_channel/batch_normalization/batchnorm/mul"
  attr {
    key: "T"
    value {
      type: DT_FLOAT
    }
  }
}
node {
  name: "y_channel/batch_normalization/batchnorm/mul_2"
  op: "Mul"
  input: "y_channel/batch_normalization/moving_mean/read"
  input: "y_channel/batch_normalization/batchnorm/mul"
  attr {
    key: "T"
    value {
      type: DT_FLOAT
    }
  }
}
node {
  name: "y_channel/batch_normalization/batchnorm/sub"
  op: "Sub"
  input: "y_channel/batch_normalization/beta/read"
  input: "y_channel/batch_normalization/batchnorm/mul_2"
  attr {
    key: "T"
    value {
      type: DT_FLOAT
    }
  }
}
node {
  name: "y_channel/batch_normalization/batchnorm/add_1"
  op: "Add"
  input: "y_channel/batch_normalization/batchnorm/mul_1"
  input: "y_channel/batch_normalization/batchnorm/sub"
  attr {
    key: "T"
    value {
      type: DT_FLOAT
    }
  }
}
node {
  name: "y_channel/dense_1/kernel/Initializer/random_uniform/shape"
  op: "Const"
  attr {
    key: "_class"
    value {
      list {
        s: "loc:@y_channel/dense_1/kernel"
      }
    }
  }
  attr {
    key: "dtype"
    value {
      type: DT_INT32
    }
  }
  attr {
    key: "value"
    value {
      tensor {
        dtype: DT_INT32
        tensor_shape {
          dim {
            size: 2
          }
        }
        tensor_content: ",\001\000\000,\001\000\000"
      }
    }
  }
}
node {
  name: "y_channel/dense_1/kernel/Initializer/random_uniform/min"
  op: "Const"
  attr {
    key: "_class"
    value {
      list {
        s: "loc:@y_channel/dense_1/kernel"
      }
    }
  }
  attr {
    key: "dtype"
    value {
      type: DT_FLOAT
    }
  }
  attr {
    key: "value"
    value {
      tensor {
        dtype: DT_FLOAT
        tensor_shape {
        }
        float_val: -0.10000000149011612
      }
    }
  }
}
node {
  name: "y_channel/dense_1/kernel/Initializer/random_uniform/max"
  op: "Const"
  attr {
    key: "_class"
    value {
      list {
        s: "loc:@y_channel/dense_1/kernel"
      }
    }
  }
  attr {
    key: "dtype"
    value {
      type: DT_FLOAT
    }
  }
  attr {
    key: "value"
    value {
      tensor {
        dtype: DT_FLOAT
        tensor_shape {
        }
        float_val: 0.10000000149011612
      }
    }
  }
}
node {
  name: "y_channel/dense_1/kernel/Initializer/random_uniform/RandomUniform"
  op: "RandomUniform"
  input: "y_channel/dense_1/kernel/Initializer/random_uniform/shape"
  attr {
    key: "T"
    value {
      type: DT_INT32
    }
  }
  attr {
    key: "_class"
    value {
      list {
        s: "loc:@y_channel/dense_1/kernel"
      }
    }
  }
  attr {
    key: "dtype"
    value {
      type: DT_FLOAT
    }
  }
  attr {
    key: "seed"
    value {
      i: 0
    }
  }
  attr {
    key: "seed2"
    value {
      i: 0
    }
  }
}
node {
  name: "y_channel/dense_1/kernel/Initializer/random_uniform/sub"
  op: "Sub"
  input: "y_channel/dense_1/kernel/Initializer/random_uniform/max"
  input: "y_channel/dense_1/kernel/Initializer/random_uniform/min"
  attr {
    key: "T"
    value {
      type: DT_FLOAT
    }
  }
  attr {
    key: "_class"
    value {
      list {
        s: "loc:@y_channel/dense_1/kernel"
      }
    }
  }
}
node {
  name: "y_channel/dense_1/kernel/Initializer/random_uniform/mul"
  op: "Mul"
  input: "y_channel/dense_1/kernel/Initializer/random_uniform/RandomUniform"
  input: "y_channel/dense_1/kernel/Initializer/random_uniform/sub"
  attr {
    key: "T"
    value {
      type: DT_FLOAT
    }
  }
  attr {
    key: "_class"
    value {
      list {
        s: "loc:@y_channel/dense_1/kernel"
      }
    }
  }
}
node {
  name: "y_channel/dense_1/kernel/Initializer/random_uniform"
  op: "Add"
  input: "y_channel/dense_1/kernel/Initializer/random_uniform/mul"
  input: "y_channel/dense_1/kernel/Initializer/random_uniform/min"
  attr {
    key: "T"
    value {
      type: DT_FLOAT
    }
  }
  attr {
    key: "_class"
    value {
      list {
        s: "loc:@y_channel/dense_1/kernel"
      }
    }
  }
}
node {
  name: "y_channel/dense_1/kernel"
  op: "VariableV2"
  attr {
    key: "_class"
    value {
      list {
        s: "loc:@y_channel/dense_1/kernel"
      }
    }
  }
  attr {
    key: "container"
    value {
      s: ""
    }
  }
  attr {
    key: "dtype"
    value {
      type: DT_FLOAT
    }
  }
  attr {
    key: "shape"
    value {
      shape {
        dim {
          size: 300
        }
        dim {
          size: 300
        }
      }
    }
  }
  attr {
    key: "shared_name"
    value {
      s: ""
    }
  }
}
node {
  name: "y_channel/dense_1/kernel/Assign"
  op: "Assign"
  input: "y_channel/dense_1/kernel"
  input: "y_channel/dense_1/kernel/Initializer/random_uniform"
  attr {
    key: "T"
    value {
      type: DT_FLOAT
    }
  }
  attr {
    key: "_class"
    value {
      list {
        s: "loc:@y_channel/dense_1/kernel"
      }
    }
  }
  attr {
    key: "use_locking"
    value {
      b: true
    }
  }
  attr {
    key: "validate_shape"
    value {
      b: true
    }
  }
}
node {
  name: "y_channel/dense_1/kernel/read"
  op: "Identity"
  input: "y_channel/dense_1/kernel"
  attr {
    key: "T"
    value {
      type: DT_FLOAT
    }
  }
  attr {
    key: "_class"
    value {
      list {
        s: "loc:@y_channel/dense_1/kernel"
      }
    }
  }
}
node {
  name: "y_channel/dense_1/bias/Initializer/zeros"
  op: "Const"
  attr {
    key: "_class"
    value {
      list {
        s: "loc:@y_channel/dense_1/bias"
      }
    }
  }
  attr {
    key: "dtype"
    value {
      type: DT_FLOAT
    }
  }
  attr {
    key: "value"
    value {
      tensor {
        dtype: DT_FLOAT
        tensor_shape {
          dim {
            size: 300
          }
        }
        float_val: 0.0
      }
    }
  }
}
node {
  name: "y_channel/dense_1/bias"
  op: "VariableV2"
  attr {
    key: "_class"
    value {
      list {
        s: "loc:@y_channel/dense_1/bias"
      }
    }
  }
  attr {
    key: "container"
    value {
      s: ""
    }
  }
  attr {
    key: "dtype"
    value {
      type: DT_FLOAT
    }
  }
  attr {
    key: "shape"
    value {
      shape {
        dim {
          size: 300
        }
      }
    }
  }
  attr {
    key: "shared_name"
    value {
      s: ""
    }
  }
}
node {
  name: "y_channel/dense_1/bias/Assign"
  op: "Assign"
  input: "y_channel/dense_1/bias"
  input: "y_channel/dense_1/bias/Initializer/zeros"
  attr {
    key: "T"
    value {
      type: DT_FLOAT
    }
  }
  attr {
    key: "_class"
    value {
      list {
        s: "loc:@y_channel/dense_1/bias"
      }
    }
  }
  attr {
    key: "use_locking"
    value {
      b: true
    }
  }
  attr {
    key: "validate_shape"
    value {
      b: true
    }
  }
}
node {
  name: "y_channel/dense_1/bias/read"
  op: "Identity"
  input: "y_channel/dense_1/bias"
  attr {
    key: "T"
    value {
      type: DT_FLOAT
    }
  }
  attr {
    key: "_class"
    value {
      list {
        s: "loc:@y_channel/dense_1/bias"
      }
    }
  }
}
node {
  name: "y_channel/dense_1/MatMul"
  op: "MatMul"
  input: "y_channel/batch_normalization/batchnorm/add_1"
  input: "y_channel/dense_1/kernel/read"
  attr {
    key: "T"
    value {
      type: DT_FLOAT
    }
  }
  attr {
    key: "transpose_a"
    value {
      b: false
    }
  }
  attr {
    key: "transpose_b"
    value {
      b: false
    }
  }
}
node {
  name: "y_channel/dense_1/BiasAdd"
  op: "BiasAdd"
  input: "y_channel/dense_1/MatMul"
  input: "y_channel/dense_1/bias/read"
  attr {
    key: "T"
    value {
      type: DT_FLOAT
    }
  }
  attr {
    key: "data_format"
    value {
      s: "NHWC"
    }
  }
}
node {
  name: "y_channel/dense_1/Tanh"
  op: "Tanh"
  input: "y_channel/dense_1/BiasAdd"
  attr {
    key: "T"
    value {
      type: DT_FLOAT
    }
  }
}
node {
  name: "y_channel/batch_normalization_1/gamma/Initializer/ones"
  op: "Const"
  attr {
    key: "_class"
    value {
      list {
        s: "loc:@y_channel/batch_normalization_1/gamma"
      }
    }
  }
  attr {
    key: "dtype"
    value {
      type: DT_FLOAT
    }
  }
  attr {
    key: "value"
    value {
      tensor {
        dtype: DT_FLOAT
        tensor_shape {
          dim {
            size: 300
          }
        }
        float_val: 1.0
      }
    }
  }
}
node {
  name: "y_channel/batch_normalization_1/gamma"
  op: "VariableV2"
  attr {
    key: "_class"
    value {
      list {
        s: "loc:@y_channel/batch_normalization_1/gamma"
      }
    }
  }
  attr {
    key: "container"
    value {
      s: ""
    }
  }
  attr {
    key: "dtype"
    value {
      type: DT_FLOAT
    }
  }
  attr {
    key: "shape"
    value {
      shape {
        dim {
          size: 300
        }
      }
    }
  }
  attr {
    key: "shared_name"
    value {
      s: ""
    }
  }
}
node {
  name: "y_channel/batch_normalization_1/gamma/Assign"
  op: "Assign"
  input: "y_channel/batch_normalization_1/gamma"
  input: "y_channel/batch_normalization_1/gamma/Initializer/ones"
  attr {
    key: "T"
    value {
      type: DT_FLOAT
    }
  }
  attr {
    key: "_class"
    value {
      list {
        s: "loc:@y_channel/batch_normalization_1/gamma"
      }
    }
  }
  attr {
    key: "use_locking"
    value {
      b: true
    }
  }
  attr {
    key: "validate_shape"
    value {
      b: true
    }
  }
}
node {
  name: "y_channel/batch_normalization_1/gamma/read"
  op: "Identity"
  input: "y_channel/batch_normalization_1/gamma"
  attr {
    key: "T"
    value {
      type: DT_FLOAT
    }
  }
  attr {
    key: "_class"
    value {
      list {
        s: "loc:@y_channel/batch_normalization_1/gamma"
      }
    }
  }
}
node {
  name: "y_channel/batch_normalization_1/beta/Initializer/zeros"
  op: "Const"
  attr {
    key: "_class"
    value {
      list {
        s: "loc:@y_channel/batch_normalization_1/beta"
      }
    }
  }
  attr {
    key: "dtype"
    value {
      type: DT_FLOAT
    }
  }
  attr {
    key: "value"
    value {
      tensor {
        dtype: DT_FLOAT
        tensor_shape {
          dim {
            size: 300
          }
        }
        float_val: 0.0
      }
    }
  }
}
node {
  name: "y_channel/batch_normalization_1/beta"
  op: "VariableV2"
  attr {
    key: "_class"
    value {
      list {
        s: "loc:@y_channel/batch_normalization_1/beta"
      }
    }
  }
  attr {
    key: "container"
    value {
      s: ""
    }
  }
  attr {
    key: "dtype"
    value {
      type: DT_FLOAT
    }
  }
  attr {
    key: "shape"
    value {
      shape {
        dim {
          size: 300
        }
      }
    }
  }
  attr {
    key: "shared_name"
    value {
      s: ""
    }
  }
}
node {
  name: "y_channel/batch_normalization_1/beta/Assign"
  op: "Assign"
  input: "y_channel/batch_normalization_1/beta"
  input: "y_channel/batch_normalization_1/beta/Initializer/zeros"
  attr {
    key: "T"
    value {
      type: DT_FLOAT
    }
  }
  attr {
    key: "_class"
    value {
      list {
        s: "loc:@y_channel/batch_normalization_1/beta"
      }
    }
  }
  attr {
    key: "use_locking"
    value {
      b: true
    }
  }
  attr {
    key: "validate_shape"
    value {
      b: true
    }
  }
}
node {
  name: "y_channel/batch_normalization_1/beta/read"
  op: "Identity"
  input: "y_channel/batch_normalization_1/beta"
  attr {
    key: "T"
    value {
      type: DT_FLOAT
    }
  }
  attr {
    key: "_class"
    value {
      list {
        s: "loc:@y_channel/batch_normalization_1/beta"
      }
    }
  }
}
node {
  name: "y_channel/batch_normalization_1/moving_mean/Initializer/zeros"
  op: "Const"
  attr {
    key: "_class"
    value {
      list {
        s: "loc:@y_channel/batch_normalization_1/moving_mean"
      }
    }
  }
  attr {
    key: "dtype"
    value {
      type: DT_FLOAT
    }
  }
  attr {
    key: "value"
    value {
      tensor {
        dtype: DT_FLOAT
        tensor_shape {
          dim {
            size: 300
          }
        }
        float_val: 0.0
      }
    }
  }
}
node {
  name: "y_channel/batch_normalization_1/moving_mean"
  op: "VariableV2"
  attr {
    key: "_class"
    value {
      list {
        s: "loc:@y_channel/batch_normalization_1/moving_mean"
      }
    }
  }
  attr {
    key: "container"
    value {
      s: ""
    }
  }
  attr {
    key: "dtype"
    value {
      type: DT_FLOAT
    }
  }
  attr {
    key: "shape"
    value {
      shape {
        dim {
          size: 300
        }
      }
    }
  }
  attr {
    key: "shared_name"
    value {
      s: ""
    }
  }
}
node {
  name: "y_channel/batch_normalization_1/moving_mean/Assign"
  op: "Assign"
  input: "y_channel/batch_normalization_1/moving_mean"
  input: "y_channel/batch_normalization_1/moving_mean/Initializer/zeros"
  attr {
    key: "T"
    value {
      type: DT_FLOAT
    }
  }
  attr {
    key: "_class"
    value {
      list {
        s: "loc:@y_channel/batch_normalization_1/moving_mean"
      }
    }
  }
  attr {
    key: "use_locking"
    value {
      b: true
    }
  }
  attr {
    key: "validate_shape"
    value {
      b: true
    }
  }
}
node {
  name: "y_channel/batch_normalization_1/moving_mean/read"
  op: "Identity"
  input: "y_channel/batch_normalization_1/moving_mean"
  attr {
    key: "T"
    value {
      type: DT_FLOAT
    }
  }
  attr {
    key: "_class"
    value {
      list {
        s: "loc:@y_channel/batch_normalization_1/moving_mean"
      }
    }
  }
}
node {
  name: "y_channel/batch_normalization_1/moving_variance/Initializer/ones"
  op: "Const"
  attr {
    key: "_class"
    value {
      list {
        s: "loc:@y_channel/batch_normalization_1/moving_variance"
      }
    }
  }
  attr {
    key: "dtype"
    value {
      type: DT_FLOAT
    }
  }
  attr {
    key: "value"
    value {
      tensor {
        dtype: DT_FLOAT
        tensor_shape {
          dim {
            size: 300
          }
        }
        float_val: 1.0
      }
    }
  }
}
node {
  name: "y_channel/batch_normalization_1/moving_variance"
  op: "VariableV2"
  attr {
    key: "_class"
    value {
      list {
        s: "loc:@y_channel/batch_normalization_1/moving_variance"
      }
    }
  }
  attr {
    key: "container"
    value {
      s: ""
    }
  }
  attr {
    key: "dtype"
    value {
      type: DT_FLOAT
    }
  }
  attr {
    key: "shape"
    value {
      shape {
        dim {
          size: 300
        }
      }
    }
  }
  attr {
    key: "shared_name"
    value {
      s: ""
    }
  }
}
node {
  name: "y_channel/batch_normalization_1/moving_variance/Assign"
  op: "Assign"
  input: "y_channel/batch_normalization_1/moving_variance"
  input: "y_channel/batch_normalization_1/moving_variance/Initializer/ones"
  attr {
    key: "T"
    value {
      type: DT_FLOAT
    }
  }
  attr {
    key: "_class"
    value {
      list {
        s: "loc:@y_channel/batch_normalization_1/moving_variance"
      }
    }
  }
  attr {
    key: "use_locking"
    value {
      b: true
    }
  }
  attr {
    key: "validate_shape"
    value {
      b: true
    }
  }
}
node {
  name: "y_channel/batch_normalization_1/moving_variance/read"
  op: "Identity"
  input: "y_channel/batch_normalization_1/moving_variance"
  attr {
    key: "T"
    value {
      type: DT_FLOAT
    }
  }
  attr {
    key: "_class"
    value {
      list {
        s: "loc:@y_channel/batch_normalization_1/moving_variance"
      }
    }
  }
}
node {
  name: "y_channel/batch_normalization_1/batchnorm/add/y"
  op: "Const"
  attr {
    key: "dtype"
    value {
      type: DT_FLOAT
    }
  }
  attr {
    key: "value"
    value {
      tensor {
        dtype: DT_FLOAT
        tensor_shape {
        }
        float_val: 0.0010000000474974513
      }
    }
  }
}
node {
  name: "y_channel/batch_normalization_1/batchnorm/add"
  op: "Add"
  input: "y_channel/batch_normalization_1/moving_variance/read"
  input: "y_channel/batch_normalization_1/batchnorm/add/y"
  attr {
    key: "T"
    value {
      type: DT_FLOAT
    }
  }
}
node {
  name: "y_channel/batch_normalization_1/batchnorm/Rsqrt"
  op: "Rsqrt"
  input: "y_channel/batch_normalization_1/batchnorm/add"
  attr {
    key: "T"
    value {
      type: DT_FLOAT
    }
  }
}
node {
  name: "y_channel/batch_normalization_1/batchnorm/mul"
  op: "Mul"
  input: "y_channel/batch_normalization_1/batchnorm/Rsqrt"
  input: "y_channel/batch_normalization_1/gamma/read"
  attr {
    key: "T"
    value {
      type: DT_FLOAT
    }
  }
}
node {
  name: "y_channel/batch_normalization_1/batchnorm/mul_1"
  op: "Mul"
  input: "y_channel/dense_1/Tanh"
  input: "y_channel/batch_normalization_1/batchnorm/mul"
  attr {
    key: "T"
    value {
      type: DT_FLOAT
    }
  }
}
node {
  name: "y_channel/batch_normalization_1/batchnorm/mul_2"
  op: "Mul"
  input: "y_channel/batch_normalization_1/moving_mean/read"
  input: "y_channel/batch_normalization_1/batchnorm/mul"
  attr {
    key: "T"
    value {
      type: DT_FLOAT
    }
  }
}
node {
  name: "y_channel/batch_normalization_1/batchnorm/sub"
  op: "Sub"
  input: "y_channel/batch_normalization_1/beta/read"
  input: "y_channel/batch_normalization_1/batchnorm/mul_2"
  attr {
    key: "T"
    value {
      type: DT_FLOAT
    }
  }
}
node {
  name: "y_channel/batch_normalization_1/batchnorm/add_1"
  op: "Add"
  input: "y_channel/batch_normalization_1/batchnorm/mul_1"
  input: "y_channel/batch_normalization_1/batchnorm/sub"
  attr {
    key: "T"
    value {
      type: DT_FLOAT
    }
  }
}
node {
  name: "y_channel/encoding/kernel/Initializer/random_uniform/shape"
  op: "Const"
  attr {
    key: "_class"
    value {
      list {
        s: "loc:@y_channel/encoding/kernel"
      }
    }
  }
  attr {
    key: "dtype"
    value {
      type: DT_INT32
    }
  }
  attr {
    key: "value"
    value {
      tensor {
        dtype: DT_INT32
        tensor_shape {
          dim {
            size: 2
          }
        }
        tensor_content: ",\001\000\000\364\001\000\000"
      }
    }
  }
}
node {
  name: "y_channel/encoding/kernel/Initializer/random_uniform/min"
  op: "Const"
  attr {
    key: "_class"
    value {
      list {
        s: "loc:@y_channel/encoding/kernel"
      }
    }
  }
  attr {
    key: "dtype"
    value {
      type: DT_FLOAT
    }
  }
  attr {
    key: "value"
    value {
      tensor {
        dtype: DT_FLOAT
        tensor_shape {
        }
        float_val: -0.08660253882408142
      }
    }
  }
}
node {
  name: "y_channel/encoding/kernel/Initializer/random_uniform/max"
  op: "Const"
  attr {
    key: "_class"
    value {
      list {
        s: "loc:@y_channel/encoding/kernel"
      }
    }
  }
  attr {
    key: "dtype"
    value {
      type: DT_FLOAT
    }
  }
  attr {
    key: "value"
    value {
      tensor {
        dtype: DT_FLOAT
        tensor_shape {
        }
        float_val: 0.08660253882408142
      }
    }
  }
}
node {
  name: "y_channel/encoding/kernel/Initializer/random_uniform/RandomUniform"
  op: "RandomUniform"
  input: "y_channel/encoding/kernel/Initializer/random_uniform/shape"
  attr {
    key: "T"
    value {
      type: DT_INT32
    }
  }
  attr {
    key: "_class"
    value {
      list {
        s: "loc:@y_channel/encoding/kernel"
      }
    }
  }
  attr {
    key: "dtype"
    value {
      type: DT_FLOAT
    }
  }
  attr {
    key: "seed"
    value {
      i: 0
    }
  }
  attr {
    key: "seed2"
    value {
      i: 0
    }
  }
}
node {
  name: "y_channel/encoding/kernel/Initializer/random_uniform/sub"
  op: "Sub"
  input: "y_channel/encoding/kernel/Initializer/random_uniform/max"
  input: "y_channel/encoding/kernel/Initializer/random_uniform/min"
  attr {
    key: "T"
    value {
      type: DT_FLOAT
    }
  }
  attr {
    key: "_class"
    value {
      list {
        s: "loc:@y_channel/encoding/kernel"
      }
    }
  }
}
node {
  name: "y_channel/encoding/kernel/Initializer/random_uniform/mul"
  op: "Mul"
  input: "y_channel/encoding/kernel/Initializer/random_uniform/RandomUniform"
  input: "y_channel/encoding/kernel/Initializer/random_uniform/sub"
  attr {
    key: "T"
    value {
      type: DT_FLOAT
    }
  }
  attr {
    key: "_class"
    value {
      list {
        s: "loc:@y_channel/encoding/kernel"
      }
    }
  }
}
node {
  name: "y_channel/encoding/kernel/Initializer/random_uniform"
  op: "Add"
  input: "y_channel/encoding/kernel/Initializer/random_uniform/mul"
  input: "y_channel/encoding/kernel/Initializer/random_uniform/min"
  attr {
    key: "T"
    value {
      type: DT_FLOAT
    }
  }
  attr {
    key: "_class"
    value {
      list {
        s: "loc:@y_channel/encoding/kernel"
      }
    }
  }
}
node {
  name: "y_channel/encoding/kernel"
  op: "VariableV2"
  attr {
    key: "_class"
    value {
      list {
        s: "loc:@y_channel/encoding/kernel"
      }
    }
  }
  attr {
    key: "container"
    value {
      s: ""
    }
  }
  attr {
    key: "dtype"
    value {
      type: DT_FLOAT
    }
  }
  attr {
    key: "shape"
    value {
      shape {
        dim {
          size: 300
        }
        dim {
          size: 500
        }
      }
    }
  }
  attr {
    key: "shared_name"
    value {
      s: ""
    }
  }
}
node {
  name: "y_channel/encoding/kernel/Assign"
  op: "Assign"
  input: "y_channel/encoding/kernel"
  input: "y_channel/encoding/kernel/Initializer/random_uniform"
  attr {
    key: "T"
    value {
      type: DT_FLOAT
    }
  }
  attr {
    key: "_class"
    value {
      list {
        s: "loc:@y_channel/encoding/kernel"
      }
    }
  }
  attr {
    key: "use_locking"
    value {
      b: true
    }
  }
  attr {
    key: "validate_shape"
    value {
      b: true
    }
  }
}
node {
  name: "y_channel/encoding/kernel/read"
  op: "Identity"
  input: "y_channel/encoding/kernel"
  attr {
    key: "T"
    value {
      type: DT_FLOAT
    }
  }
  attr {
    key: "_class"
    value {
      list {
        s: "loc:@y_channel/encoding/kernel"
      }
    }
  }
}
node {
  name: "y_channel/encoding/bias/Initializer/zeros"
  op: "Const"
  attr {
    key: "_class"
    value {
      list {
        s: "loc:@y_channel/encoding/bias"
      }
    }
  }
  attr {
    key: "dtype"
    value {
      type: DT_FLOAT
    }
  }
  attr {
    key: "value"
    value {
      tensor {
        dtype: DT_FLOAT
        tensor_shape {
          dim {
            size: 500
          }
        }
        float_val: 0.0
      }
    }
  }
}
node {
  name: "y_channel/encoding/bias"
  op: "VariableV2"
  attr {
    key: "_class"
    value {
      list {
        s: "loc:@y_channel/encoding/bias"
      }
    }
  }
  attr {
    key: "container"
    value {
      s: ""
    }
  }
  attr {
    key: "dtype"
    value {
      type: DT_FLOAT
    }
  }
  attr {
    key: "shape"
    value {
      shape {
        dim {
          size: 500
        }
      }
    }
  }
  attr {
    key: "shared_name"
    value {
      s: ""
    }
  }
}
node {
  name: "y_channel/encoding/bias/Assign"
  op: "Assign"
  input: "y_channel/encoding/bias"
  input: "y_channel/encoding/bias/Initializer/zeros"
  attr {
    key: "T"
    value {
      type: DT_FLOAT
    }
  }
  attr {
    key: "_class"
    value {
      list {
        s: "loc:@y_channel/encoding/bias"
      }
    }
  }
  attr {
    key: "use_locking"
    value {
      b: true
    }
  }
  attr {
    key: "validate_shape"
    value {
      b: true
    }
  }
}
node {
  name: "y_channel/encoding/bias/read"
  op: "Identity"
  input: "y_channel/encoding/bias"
  attr {
    key: "T"
    value {
      type: DT_FLOAT
    }
  }
  attr {
    key: "_class"
    value {
      list {
        s: "loc:@y_channel/encoding/bias"
      }
    }
  }
}
node {
  name: "y_channel/encoding/MatMul"
  op: "MatMul"
  input: "y_channel/batch_normalization_1/batchnorm/add_1"
  input: "y_channel/encoding/kernel/read"
  attr {
    key: "T"
    value {
      type: DT_FLOAT
    }
  }
  attr {
    key: "transpose_a"
    value {
      b: false
    }
  }
  attr {
    key: "transpose_b"
    value {
      b: false
    }
  }
}
node {
  name: "y_channel/encoding/BiasAdd"
  op: "BiasAdd"
  input: "y_channel/encoding/MatMul"
  input: "y_channel/encoding/bias/read"
  attr {
    key: "T"
    value {
      type: DT_FLOAT
    }
  }
  attr {
    key: "data_format"
    value {
      s: "NHWC"
    }
  }
}
node {
  name: "y_channel/encoding/Tanh"
  op: "Tanh"
  input: "y_channel/encoding/BiasAdd"
  attr {
    key: "T"
    value {
      type: DT_FLOAT
    }
  }
}
node {
  name: "MatMul"
  op: "MatMul"
  input: "x_channel/encoding/Tanh"
  input: "y_channel/encoding/Tanh"
  attr {
    key: "T"
    value {
      type: DT_FLOAT
    }
  }
  attr {
    key: "transpose_a"
    value {
      b: false
    }
  }
  attr {
    key: "transpose_b"
    value {
      b: true
    }
  }
}
node {
  name: "value/dimension"
  op: "Const"
  attr {
    key: "dtype"
    value {
      type: DT_INT32
    }
  }
  attr {
    key: "value"
    value {
      tensor {
        dtype: DT_INT32
        tensor_shape {
        }
        int_val: 1
      }
    }
  }
}
node {
  name: "value"
  op: "ArgMax"
  input: "MatMul"
  input: "value/dimension"
  attr {
    key: "T"
    value {
      type: DT_FLOAT
    }
  }
  attr {
    key: "Tidx"
    value {
      type: DT_INT32
    }
  }
  attr {
    key: "output_type"
    value {
      type: DT_INT64
    }
  }
}
node {
  name: "score/reduction_indices"
  op: "Const"
  attr {
    key: "dtype"
    value {
      type: DT_INT32
    }
  }
  attr {
    key: "value"
    value {
      tensor {
        dtype: DT_INT32
        tensor_shape {
        }
        int_val: 1
      }
    }
  }
}
node {
  name: "score"
  op: "Max"
  input: "MatMul"
  input: "score/reduction_indices"
  attr {
    key: "T"
    value {
      type: DT_FLOAT
    }
  }
  attr {
    key: "Tidx"
    value {
      type: DT_INT32
    }
  }
  attr {
    key: "keep_dims"
    value {
      b: false
    }
  }
}
node {
  name: "save/Const"
  op: "Const"
  attr {
    key: "dtype"
    value {
      type: DT_STRING
    }
  }
  attr {
    key: "value"
    value {
      tensor {
        dtype: DT_STRING
        tensor_shape {
        }
        string_val: "model"
      }
    }
  }
}
node {
  name: "save/SaveV2/tensor_names"
  op: "Const"
  attr {
    key: "dtype"
    value {
      type: DT_STRING
    }
  }
  attr {
    key: "value"
    value {
      tensor {
        dtype: DT_STRING
        tensor_shape {
          dim {
            size: 29
          }
        }
        string_val: "embedding"
        string_val: "x_channel/batch_normalization/beta"
        string_val: "x_channel/batch_normalization/gamma"
        string_val: "x_channel/batch_normalization/moving_mean"
        string_val: "x_channel/batch_normalization/moving_variance"
        string_val: "x_channel/batch_normalization_1/beta"
        string_val: "x_channel/batch_normalization_1/gamma"
        string_val: "x_channel/batch_normalization_1/moving_mean"
        string_val: "x_channel/batch_normalization_1/moving_variance"
        string_val: "x_channel/dense/bias"
        string_val: "x_channel/dense/kernel"
        string_val: "x_channel/dense_1/bias"
        string_val: "x_channel/dense_1/kernel"
        string_val: "x_channel/encoding/bias"
        string_val: "x_channel/encoding/kernel"
        string_val: "y_channel/batch_normalization/beta"
        string_val: "y_channel/batch_normalization/gamma"
        string_val: "y_channel/batch_normalization/moving_mean"
        string_val: "y_channel/batch_normalization/moving_variance"
        string_val: "y_channel/batch_normalization_1/beta"
        string_val: "y_channel/batch_normalization_1/gamma"
        string_val: "y_channel/batch_normalization_1/moving_mean"
        string_val: "y_channel/batch_normalization_1/moving_variance"
        string_val: "y_channel/dense/bias"
        string_val: "y_channel/dense/kernel"
        string_val: "y_channel/dense_1/bias"
        string_val: "y_channel/dense_1/kernel"
        string_val: "y_channel/encoding/bias"
        string_val: "y_channel/encoding/kernel"
      }
    }
  }
}
node {
  name: "save/SaveV2/shape_and_slices"
  op: "Const"
  attr {
    key: "dtype"
    value {
      type: DT_STRING
    }
  }
  attr {
    key: "value"
    value {
      tensor {
        dtype: DT_STRING
        tensor_shape {
          dim {
            size: 29
          }
        }
        string_val: ""
        string_val: ""
        string_val: ""
        string_val: ""
        string_val: ""
        string_val: ""
        string_val: ""
        string_val: ""
        string_val: ""
        string_val: ""
        string_val: ""
        string_val: ""
        string_val: ""
        string_val: ""
        string_val: ""
        string_val: ""
        string_val: ""
        string_val: ""
        string_val: ""
        string_val: ""
        string_val: ""
        string_val: ""
        string_val: ""
        string_val: ""
        string_val: ""
        string_val: ""
        string_val: ""
        string_val: ""
        string_val: ""
      }
    }
  }
}
node {
  name: "save/SaveV2"
  op: "SaveV2"
  input: "save/Const"
  input: "save/SaveV2/tensor_names"
  input: "save/SaveV2/shape_and_slices"
  input: "embedding"
  input: "x_channel/batch_normalization/beta"
  input: "x_channel/batch_normalization/gamma"
  input: "x_channel/batch_normalization/moving_mean"
  input: "x_channel/batch_normalization/moving_variance"
  input: "x_channel/batch_normalization_1/beta"
  input: "x_channel/batch_normalization_1/gamma"
  input: "x_channel/batch_normalization_1/moving_mean"
  input: "x_channel/batch_normalization_1/moving_variance"
  input: "x_channel/dense/bias"
  input: "x_channel/dense/kernel"
  input: "x_channel/dense_1/bias"
  input: "x_channel/dense_1/kernel"
  input: "x_channel/encoding/bias"
  input: "x_channel/encoding/kernel"
  input: "y_channel/batch_normalization/beta"
  input: "y_channel/batch_normalization/gamma"
  input: "y_channel/batch_normalization/moving_mean"
  input: "y_channel/batch_normalization/moving_variance"
  input: "y_channel/batch_normalization_1/beta"
  input: "y_channel/batch_normalization_1/gamma"
  input: "y_channel/batch_normalization_1/moving_mean"
  input: "y_channel/batch_normalization_1/moving_variance"
  input: "y_channel/dense/bias"
  input: "y_channel/dense/kernel"
  input: "y_channel/dense_1/bias"
  input: "y_channel/dense_1/kernel"
  input: "y_channel/encoding/bias"
  input: "y_channel/encoding/kernel"
  attr {
    key: "dtypes"
    value {
      list {
        type: DT_FLOAT
        type: DT_FLOAT
        type: DT_FLOAT
        type: DT_FLOAT
        type: DT_FLOAT
        type: DT_FLOAT
        type: DT_FLOAT
        type: DT_FLOAT
        type: DT_FLOAT
        type: DT_FLOAT
        type: DT_FLOAT
        type: DT_FLOAT
        type: DT_FLOAT
        type: DT_FLOAT
        type: DT_FLOAT
        type: DT_FLOAT
        type: DT_FLOAT
        type: DT_FLOAT
        type: DT_FLOAT
        type: DT_FLOAT
        type: DT_FLOAT
        type: DT_FLOAT
        type: DT_FLOAT
        type: DT_FLOAT
        type: DT_FLOAT
        type: DT_FLOAT
        type: DT_FLOAT
        type: DT_FLOAT
        type: DT_FLOAT
      }
    }
  }
}
node {
  name: "save/control_dependency"
  op: "Identity"
  input: "save/Const"
  input: "^save/SaveV2"
  attr {
    key: "T"
    value {
      type: DT_STRING
    }
  }
  attr {
    key: "_class"
    value {
      list {
        s: "loc:@save/Const"
      }
    }
  }
}
node {
  name: "save/RestoreV2/tensor_names"
  op: "Const"
  device: "/device:CPU:0"
  attr {
    key: "dtype"
    value {
      type: DT_STRING
    }
  }
  attr {
    key: "value"
    value {
      tensor {
        dtype: DT_STRING
        tensor_shape {
          dim {
            size: 29
          }
        }
        string_val: "embedding"
        string_val: "x_channel/batch_normalization/beta"
        string_val: "x_channel/batch_normalization/gamma"
        string_val: "x_channel/batch_normalization/moving_mean"
        string_val: "x_channel/batch_normalization/moving_variance"
        string_val: "x_channel/batch_normalization_1/beta"
        string_val: "x_channel/batch_normalization_1/gamma"
        string_val: "x_channel/batch_normalization_1/moving_mean"
        string_val: "x_channel/batch_normalization_1/moving_variance"
        string_val: "x_channel/dense/bias"
        string_val: "x_channel/dense/kernel"
        string_val: "x_channel/dense_1/bias"
        string_val: "x_channel/dense_1/kernel"
        string_val: "x_channel/encoding/bias"
        string_val: "x_channel/encoding/kernel"
        string_val: "y_channel/batch_normalization/beta"
        string_val: "y_channel/batch_normalization/gamma"
        string_val: "y_channel/batch_normalization/moving_mean"
        string_val: "y_channel/batch_normalization/moving_variance"
        string_val: "y_channel/batch_normalization_1/beta"
        string_val: "y_channel/batch_normalization_1/gamma"
        string_val: "y_channel/batch_normalization_1/moving_mean"
        string_val: "y_channel/batch_normalization_1/moving_variance"
        string_val: "y_channel/dense/bias"
        string_val: "y_channel/dense/kernel"
        string_val: "y_channel/dense_1/bias"
        string_val: "y_channel/dense_1/kernel"
        string_val: "y_channel/encoding/bias"
        string_val: "y_channel/encoding/kernel"
      }
    }
  }
}
node {
  name: "save/RestoreV2/shape_and_slices"
  op: "Const"
  device: "/device:CPU:0"
  attr {
    key: "dtype"
    value {
      type: DT_STRING
    }
  }
  attr {
    key: "value"
    value {
      tensor {
        dtype: DT_STRING
        tensor_shape {
          dim {
            size: 29
          }
        }
        string_val: ""
        string_val: ""
        string_val: ""
        string_val: ""
        string_val: ""
        string_val: ""
        string_val: ""
        string_val: ""
        string_val: ""
        string_val: ""
        string_val: ""
        string_val: ""
        string_val: ""
        string_val: ""
        string_val: ""
        string_val: ""
        string_val: ""
        string_val: ""
        string_val: ""
        string_val: ""
        string_val: ""
        string_val: ""
        string_val: ""
        string_val: ""
        string_val: ""
        string_val: ""
        string_val: ""
        string_val: ""
        string_val: ""
      }
    }
  }
}
node {
  name: "save/RestoreV2"
  op: "RestoreV2"
  input: "save/Const"
  input: "save/RestoreV2/tensor_names"
  input: "save/RestoreV2/shape_and_slices"
  device: "/device:CPU:0"
  attr {
    key: "dtypes"
    value {
      list {
        type: DT_FLOAT
        type: DT_FLOAT
        type: DT_FLOAT
        type: DT_FLOAT
        type: DT_FLOAT
        type: DT_FLOAT
        type: DT_FLOAT
        type: DT_FLOAT
        type: DT_FLOAT
        type: DT_FLOAT
        type: DT_FLOAT
        type: DT_FLOAT
        type: DT_FLOAT
        type: DT_FLOAT
        type: DT_FLOAT
        type: DT_FLOAT
        type: DT_FLOAT
        type: DT_FLOAT
        type: DT_FLOAT
        type: DT_FLOAT
        type: DT_FLOAT
        type: DT_FLOAT
        type: DT_FLOAT
        type: DT_FLOAT
        type: DT_FLOAT
        type: DT_FLOAT
        type: DT_FLOAT
        type: DT_FLOAT
        type: DT_FLOAT
      }
    }
  }
}
node {
  name: "save/Assign"
  op: "Assign"
  input: "embedding"
  input: "save/RestoreV2"
  attr {
    key: "T"
    value {
      type: DT_FLOAT
    }
  }
  attr {
    key: "_class"
    value {
      list {
        s: "loc:@embedding"
      }
    }
  }
  attr {
    key: "use_locking"
    value {
      b: true
    }
  }
  attr {
    key: "validate_shape"
    value {
      b: true
    }
  }
}
node {
  name: "save/Assign_1"
  op: "Assign"
  input: "x_channel/batch_normalization/beta"
  input: "save/RestoreV2:1"
  attr {
    key: "T"
    value {
      type: DT_FLOAT
    }
  }
  attr {
    key: "_class"
    value {
      list {
        s: "loc:@x_channel/batch_normalization/beta"
      }
    }
  }
  attr {
    key: "use_locking"
    value {
      b: true
    }
  }
  attr {
    key: "validate_shape"
    value {
      b: true
    }
  }
}
node {
  name: "save/Assign_2"
  op: "Assign"
  input: "x_channel/batch_normalization/gamma"
  input: "save/RestoreV2:2"
  attr {
    key: "T"
    value {
      type: DT_FLOAT
    }
  }
  attr {
    key: "_class"
    value {
      list {
        s: "loc:@x_channel/batch_normalization/gamma"
      }
    }
  }
  attr {
    key: "use_locking"
    value {
      b: true
    }
  }
  attr {
    key: "validate_shape"
    value {
      b: true
    }
  }
}
node {
  name: "save/Assign_3"
  op: "Assign"
  input: "x_channel/batch_normalization/moving_mean"
  input: "save/RestoreV2:3"
  attr {
    key: "T"
    value {
      type: DT_FLOAT
    }
  }
  attr {
    key: "_class"
    value {
      list {
        s: "loc:@x_channel/batch_normalization/moving_mean"
      }
    }
  }
  attr {
    key: "use_locking"
    value {
      b: true
    }
  }
  attr {
    key: "validate_shape"
    value {
      b: true
    }
  }
}
node {
  name: "save/Assign_4"
  op: "Assign"
  input: "x_channel/batch_normalization/moving_variance"
  input: "save/RestoreV2:4"
  attr {
    key: "T"
    value {
      type: DT_FLOAT
    }
  }
  attr {
    key: "_class"
    value {
      list {
        s: "loc:@x_channel/batch_normalization/moving_variance"
      }
    }
  }
  attr {
    key: "use_locking"
    value {
      b: true
    }
  }
  attr {
    key: "validate_shape"
    value {
      b: true
    }
  }
}
node {
  name: "save/Assign_5"
  op: "Assign"
  input: "x_channel/batch_normalization_1/beta"
  input: "save/RestoreV2:5"
  attr {
    key: "T"
    value {
      type: DT_FLOAT
    }
  }
  attr {
    key: "_class"
    value {
      list {
        s: "loc:@x_channel/batch_normalization_1/beta"
      }
    }
  }
  attr {
    key: "use_locking"
    value {
      b: true
    }
  }
  attr {
    key: "validate_shape"
    value {
      b: true
    }
  }
}
node {
  name: "save/Assign_6"
  op: "Assign"
  input: "x_channel/batch_normalization_1/gamma"
  input: "save/RestoreV2:6"
  attr {
    key: "T"
    value {
      type: DT_FLOAT
    }
  }
  attr {
    key: "_class"
    value {
      list {
        s: "loc:@x_channel/batch_normalization_1/gamma"
      }
    }
  }
  attr {
    key: "use_locking"
    value {
      b: true
    }
  }
  attr {
    key: "validate_shape"
    value {
      b: true
    }
  }
}
node {
  name: "save/Assign_7"
  op: "Assign"
  input: "x_channel/batch_normalization_1/moving_mean"
  input: "save/RestoreV2:7"
  attr {
    key: "T"
    value {
      type: DT_FLOAT
    }
  }
  attr {
    key: "_class"
    value {
      list {
        s: "loc:@x_channel/batch_normalization_1/moving_mean"
      }
    }
  }
  attr {
    key: "use_locking"
    value {
      b: true
    }
  }
  attr {
    key: "validate_shape"
    value {
      b: true
    }
  }
}
node {
  name: "save/Assign_8"
  op: "Assign"
  input: "x_channel/batch_normalization_1/moving_variance"
  input: "save/RestoreV2:8"
  attr {
    key: "T"
    value {
      type: DT_FLOAT
    }
  }
  attr {
    key: "_class"
    value {
      list {
        s: "loc:@x_channel/batch_normalization_1/moving_variance"
      }
    }
  }
  attr {
    key: "use_locking"
    value {
      b: true
    }
  }
  attr {
    key: "validate_shape"
    value {
      b: true
    }
  }
}
node {
  name: "save/Assign_9"
  op: "Assign"
  input: "x_channel/dense/bias"
  input: "save/RestoreV2:9"
  attr {
    key: "T"
    value {
      type: DT_FLOAT
    }
  }
  attr {
    key: "_class"
    value {
      list {
        s: "loc:@x_channel/dense/bias"
      }
    }
  }
  attr {
    key: "use_locking"
    value {
      b: true
    }
  }
  attr {
    key: "validate_shape"
    value {
      b: true
    }
  }
}
node {
  name: "save/Assign_10"
  op: "Assign"
  input: "x_channel/dense/kernel"
  input: "save/RestoreV2:10"
  attr {
    key: "T"
    value {
      type: DT_FLOAT
    }
  }
  attr {
    key: "_class"
    value {
      list {
        s: "loc:@x_channel/dense/kernel"
      }
    }
  }
  attr {
    key: "use_locking"
    value {
      b: true
    }
  }
  attr {
    key: "validate_shape"
    value {
      b: true
    }
  }
}
node {
  name: "save/Assign_11"
  op: "Assign"
  input: "x_channel/dense_1/bias"
  input: "save/RestoreV2:11"
  attr {
    key: "T"
    value {
      type: DT_FLOAT
    }
  }
  attr {
    key: "_class"
    value {
      list {
        s: "loc:@x_channel/dense_1/bias"
      }
    }
  }
  attr {
    key: "use_locking"
    value {
      b: true
    }
  }
  attr {
    key: "validate_shape"
    value {
      b: true
    }
  }
}
node {
  name: "save/Assign_12"
  op: "Assign"
  input: "x_channel/dense_1/kernel"
  input: "save/RestoreV2:12"
  attr {
    key: "T"
    value {
      type: DT_FLOAT
    }
  }
  attr {
    key: "_class"
    value {
      list {
        s: "loc:@x_channel/dense_1/kernel"
      }
    }
  }
  attr {
    key: "use_locking"
    value {
      b: true
    }
  }
  attr {
    key: "validate_shape"
    value {
      b: true
    }
  }
}
node {
  name: "save/Assign_13"
  op: "Assign"
  input: "x_channel/encoding/bias"
  input: "save/RestoreV2:13"
  attr {
    key: "T"
    value {
      type: DT_FLOAT
    }
  }
  attr {
    key: "_class"
    value {
      list {
        s: "loc:@x_channel/encoding/bias"
      }
    }
  }
  attr {
    key: "use_locking"
    value {
      b: true
    }
  }
  attr {
    key: "validate_shape"
    value {
      b: true
    }
  }
}
node {
  name: "save/Assign_14"
  op: "Assign"
  input: "x_channel/encoding/kernel"
  input: "save/RestoreV2:14"
  attr {
    key: "T"
    value {
      type: DT_FLOAT
    }
  }
  attr {
    key: "_class"
    value {
      list {
        s: "loc:@x_channel/encoding/kernel"
      }
    }
  }
  attr {
    key: "use_locking"
    value {
      b: true
    }
  }
  attr {
    key: "validate_shape"
    value {
      b: true
    }
  }
}
node {
  name: "save/Assign_15"
  op: "Assign"
  input: "y_channel/batch_normalization/beta"
  input: "save/RestoreV2:15"
  attr {
    key: "T"
    value {
      type: DT_FLOAT
    }
  }
  attr {
    key: "_class"
    value {
      list {
        s: "loc:@y_channel/batch_normalization/beta"
      }
    }
  }
  attr {
    key: "use_locking"
    value {
      b: true
    }
  }
  attr {
    key: "validate_shape"
    value {
      b: true
    }
  }
}
node {
  name: "save/Assign_16"
  op: "Assign"
  input: "y_channel/batch_normalization/gamma"
  input: "save/RestoreV2:16"
  attr {
    key: "T"
    value {
      type: DT_FLOAT
    }
  }
  attr {
    key: "_class"
    value {
      list {
        s: "loc:@y_channel/batch_normalization/gamma"
      }
    }
  }
  attr {
    key: "use_locking"
    value {
      b: true
    }
  }
  attr {
    key: "validate_shape"
    value {
      b: true
    }
  }
}
node {
  name: "save/Assign_17"
  op: "Assign"
  input: "y_channel/batch_normalization/moving_mean"
  input: "save/RestoreV2:17"
  attr {
    key: "T"
    value {
      type: DT_FLOAT
    }
  }
  attr {
    key: "_class"
    value {
      list {
        s: "loc:@y_channel/batch_normalization/moving_mean"
      }
    }
  }
  attr {
    key: "use_locking"
    value {
      b: true
    }
  }
  attr {
    key: "validate_shape"
    value {
      b: true
    }
  }
}
node {
  name: "save/Assign_18"
  op: "Assign"
  input: "y_channel/batch_normalization/moving_variance"
  input: "save/RestoreV2:18"
  attr {
    key: "T"
    value {
      type: DT_FLOAT
    }
  }
  attr {
    key: "_class"
    value {
      list {
        s: "loc:@y_channel/batch_normalization/moving_variance"
      }
    }
  }
  attr {
    key: "use_locking"
    value {
      b: true
    }
  }
  attr {
    key: "validate_shape"
    value {
      b: true
    }
  }
}
node {
  name: "save/Assign_19"
  op: "Assign"
  input: "y_channel/batch_normalization_1/beta"
  input: "save/RestoreV2:19"
  attr {
    key: "T"
    value {
      type: DT_FLOAT
    }
  }
  attr {
    key: "_class"
    value {
      list {
        s: "loc:@y_channel/batch_normalization_1/beta"
      }
    }
  }
  attr {
    key: "use_locking"
    value {
      b: true
    }
  }
  attr {
    key: "validate_shape"
    value {
      b: true
    }
  }
}
node {
  name: "save/Assign_20"
  op: "Assign"
  input: "y_channel/batch_normalization_1/gamma"
  input: "save/RestoreV2:20"
  attr {
    key: "T"
    value {
      type: DT_FLOAT
    }
  }
  attr {
    key: "_class"
    value {
      list {
        s: "loc:@y_channel/batch_normalization_1/gamma"
      }
    }
  }
  attr {
    key: "use_locking"
    value {
      b: true
    }
  }
  attr {
    key: "validate_shape"
    value {
      b: true
    }
  }
}
node {
  name: "save/Assign_21"
  op: "Assign"
  input: "y_channel/batch_normalization_1/moving_mean"
  input: "save/RestoreV2:21"
  attr {
    key: "T"
    value {
      type: DT_FLOAT
    }
  }
  attr {
    key: "_class"
    value {
      list {
        s: "loc:@y_channel/batch_normalization_1/moving_mean"
      }
    }
  }
  attr {
    key: "use_locking"
    value {
      b: true
    }
  }
  attr {
    key: "validate_shape"
    value {
      b: true
    }
  }
}
node {
  name: "save/Assign_22"
  op: "Assign"
  input: "y_channel/batch_normalization_1/moving_variance"
  input: "save/RestoreV2:22"
  attr {
    key: "T"
    value {
      type: DT_FLOAT
    }
  }
  attr {
    key: "_class"
    value {
      list {
        s: "loc:@y_channel/batch_normalization_1/moving_variance"
      }
    }
  }
  attr {
    key: "use_locking"
    value {
      b: true
    }
  }
  attr {
    key: "validate_shape"
    value {
      b: true
    }
  }
}
node {
  name: "save/Assign_23"
  op: "Assign"
  input: "y_channel/dense/bias"
  input: "save/RestoreV2:23"
  attr {
    key: "T"
    value {
      type: DT_FLOAT
    }
  }
  attr {
    key: "_class"
    value {
      list {
        s: "loc:@y_channel/dense/bias"
      }
    }
  }
  attr {
    key: "use_locking"
    value {
      b: true
    }
  }
  attr {
    key: "validate_shape"
    value {
      b: true
    }
  }
}
node {
  name: "save/Assign_24"
  op: "Assign"
  input: "y_channel/dense/kernel"
  input: "save/RestoreV2:24"
  attr {
    key: "T"
    value {
      type: DT_FLOAT
    }
  }
  attr {
    key: "_class"
    value {
      list {
        s: "loc:@y_channel/dense/kernel"
      }
    }
  }
  attr {
    key: "use_locking"
    value {
      b: true
    }
  }
  attr {
    key: "validate_shape"
    value {
      b: true
    }
  }
}
node {
  name: "save/Assign_25"
  op: "Assign"
  input: "y_channel/dense_1/bias"
  input: "save/RestoreV2:25"
  attr {
    key: "T"
    value {
      type: DT_FLOAT
    }
  }
  attr {
    key: "_class"
    value {
      list {
        s: "loc:@y_channel/dense_1/bias"
      }
    }
  }
  attr {
    key: "use_locking"
    value {
      b: true
    }
  }
  attr {
    key: "validate_shape"
    value {
      b: true
    }
  }
}
node {
  name: "save/Assign_26"
  op: "Assign"
  input: "y_channel/dense_1/kernel"
  input: "save/RestoreV2:26"
  attr {
    key: "T"
    value {
      type: DT_FLOAT
    }
  }
  attr {
    key: "_class"
    value {
      list {
        s: "loc:@y_channel/dense_1/kernel"
      }
    }
  }
  attr {
    key: "use_locking"
    value {
      b: true
    }
  }
  attr {
    key: "validate_shape"
    value {
      b: true
    }
  }
}
node {
  name: "save/Assign_27"
  op: "Assign"
  input: "y_channel/encoding/bias"
  input: "save/RestoreV2:27"
  attr {
    key: "T"
    value {
      type: DT_FLOAT
    }
  }
  attr {
    key: "_class"
    value {
      list {
        s: "loc:@y_channel/encoding/bias"
      }
    }
  }
  attr {
    key: "use_locking"
    value {
      b: true
    }
  }
  attr {
    key: "validate_shape"
    value {
      b: true
    }
  }
}
node {
  name: "save/Assign_28"
  op: "Assign"
  input: "y_channel/encoding/kernel"
  input: "save/RestoreV2:28"
  attr {
    key: "T"
    value {
      type: DT_FLOAT
    }
  }
  attr {
    key: "_class"
    value {
      list {
        s: "loc:@y_channel/encoding/kernel"
      }
    }
  }
  attr {
    key: "use_locking"
    value {
      b: true
    }
  }
  attr {
    key: "validate_shape"
    value {
      b: true
    }
  }
}
node {
  name: "save/restore_all"
  op: "NoOp"
  input: "^save/Assign"
  input: "^save/Assign_1"
  input: "^save/Assign_10"
  input: "^save/Assign_11"
  input: "^save/Assign_12"
  input: "^save/Assign_13"
  input: "^save/Assign_14"
  input: "^save/Assign_15"
  input: "^save/Assign_16"
  input: "^save/Assign_17"
  input: "^save/Assign_18"
  input: "^save/Assign_19"
  input: "^save/Assign_2"
  input: "^save/Assign_20"
  input: "^save/Assign_21"
  input: "^save/Assign_22"
  input: "^save/Assign_23"
  input: "^save/Assign_24"
  input: "^save/Assign_25"
  input: "^save/Assign_26"
  input: "^save/Assign_27"
  input: "^save/Assign_28"
  input: "^save/Assign_3"
  input: "^save/Assign_4"
  input: "^save/Assign_5"
  input: "^save/Assign_6"
  input: "^save/Assign_7"
  input: "^save/Assign_8"
  input: "^save/Assign_9"
}
versions {
  producer: 27
}
